models/data/results_20241028_151944/best_stroke_model.pth (torch, 16248 bytes, 7 tensors)

model.0.weight f4 [64, 8]
000000 2d e8 84 bd dd d9 8a 3d b5 3a 19 be bf 6b 0b bc
       -0.064895965 0.067798354 -0.14963801 -0.008509575
000010 10 75 26 bf ec 9e 8c 3c 77 fc 5e be c9 00 78 3d
       -0.65022373 0.017165624 -0.21775995 0.060547624
000020 da f1 b4 bd 68 64 00 bf f4 e6 68 be 1e df b9 3b
       -0.08835192 -0.5015321 -0.22744352 0.0056723496
000030 81 4f b6 be 6f 32 0e be ae 69 06 3e cc 96 04 bf
       -0.35607532 -0.13886426 0.13126251 -0.517926
000040 82 fa 5a bc 28 73 5c 3e 05 17 44 be 38 b4 9d bd
       -0.01336539 0.21528304 -0.19149406 -0.077003896
000050 5a 1a b3 3c 7e 5c 99 3e 3f 43 94 be b7 6e f6 be
       0.021863151 0.29953378 -0.28957555 -0.48131344
000060 fb 35 8a be e0 d0 36 be 5e b3 40 3e 7c 9e 02 bf
       -0.2699431 -0.17853117 0.18818423 -0.5102308
000070 05 92 9d be 4d 09 2e 3e 29 a2 fc 3d 62 54 27 3f
       -0.30775467 0.16995735 0.12335617 0.6536313
000080 18 62 7f bc a7 12 01 bf b9 a8 a7 bb 9d db 21 3e
       -0.015587352 -0.50419086 -0.005116549 0.15806432
000090 80 ab cd 3e a5 61 45 be 71 17 0d 3f d2 78 72 be
       0.40169907 -0.1927553 0.55113894 -0.23678902
0000a0 21 4b ac 3e b1 e6 aa 3e 68 15 0f 3e ad 05 86 3e
       0.3365107 0.3337913 0.1397301 0.26176205
0000b0 2b 1b a5 3e bc 60 61 be 1c 18 aa 3e c7 c2 9e 3e
       0.3224729 -0.22009557 0.3322152 0.31007978
0000c0 be f4 4d 3b a0 24 3b bf 83 ac 30 bd 56 3e 88 3e
       0.0031426395 -0.7310276 -0.04313327 0.2661006
0000d0 7f b8 77 bc be 0a 6b be f6 fc 7b bd 3b f3 d0 be
       -0.015119671 -0.22953317 -0.06152054 -0.4081057
0000e0 c2 78 fa bd 83 6f 13 3e f8 2d 84 3d 9e 4f 41 bb
       -0.12230064 0.14398007 0.0645408 -0.0029496918
0000f0 dc cd d0 3e 3c 9d d1 be 65 05 5a 3e 45 05 75 be
       0.40782058 -0.40940273 0.2129112 -0.23927791
000100 19 8b ba be 93 3a e8 3d f5 0a 9b 3e 02 79 4c 3e
       -0.36434248 0.11339297 0.30281797 0.19968036
000110 57 ad 8e be 4f 17 19 3e 83 19 29 3e b8 8f 8c be
       -0.27866623 0.14950298 0.16513638 -0.274534
000120 9e 15 0f bd ff 60 87 3e 79 82 0d 3e 0c b4 62 be
       -0.034932725 0.2644119 0.13819303 -0.22138995
000130 90 2c 10 be ba 2c d2 3d 22 5c c1 3e 73 87 09 3c
       -0.14079499 0.10262437 0.37765604 0.00839411
000140 6a 39 0d be 0f 85 c9 be cc 53 8e bd 9c 6b d0 bd
       -0.13791433 -0.39359328 -0.06949577 -0.10176775
000150 cf 44 43 be 17 e2 8c 3e 2e 78 a8 3e 7f 30 1f bf
       -0.19069217 0.27516243 0.3290419 -0.62183374
000160 6c 3c 72 3e cc af f3 be 23 52 a9 bd b3 13 00 3e
       0.23655862 -0.4759506 -0.082676195 0.12507515
000170 84 23 c2 be f2 6a 8a 3d 3c 7b e2 3e 21 62 02 3d
       -0.3791772 0.067586794 0.44234645 0.031831864
000180 2c a7 06 3d 5b 18 b0 be 33 3b 1c 3e 1d d3 ea bd
       0.03287427 -0.34393582 0.15256958 -0.11466048
000190 b4 e3 c8 be 34 53 c0 3e 00 9d e0 3d d1 45 51 3e
       -0.39236224 0.3756348 0.109674454 0.20436789
0001a0 b8 68 81 be 58 9e 0c 3f 6d ab ac 3d c0 38 9d 3d
       -0.25275207 0.54929113 0.084311344 0.0767684
0001b0 b6 2a 66 3e 02 2c 00 3c 14 da 70 bd df f4 dd 3e
       0.2247723 0.007822992 -0.058801726 0.43350884
0001c0 09 6c 76 bb 41 7d 40 3f 88 5e a9 bd 09 8a 63 3e
       -0.0037601015 0.7519112 -0.082699835 0.22220625
0001d0 d6 3c 11 3e f5 0c 8b 3d 12 03 a7 3e 22 c1 01 3e
       0.14183363 0.06789581 0.3261953 0.1267133
0001e0 41 e9 d8 be 57 ed df 3c 3e 52 ac be a5 02 68 3d
       -0.4236546 0.027334852 -0.33656496 0.056643147
0001f0 ee bb ed be 35 4e 3f 3e 20 ac a3 be 8b e2 88 3e
       -0.4643244 0.18682177 -0.31967258 0.2673534
000200 e7 ee 0c bf b4 e8 b9 3e 89 33 87 3e 60 85 c6 be
       -0.55052036 0.3631035 0.26406506 -0.38773632
000210 e0 01 33 3e b3 b6 17 3e 11 99 0d 3c 31 1d d1 3e
       0.17481184 0.14815788 0.008642451 0.40842584
000220 00 07 85 bb 30 a6 b8 bd 8e 6e da bd 1f 70 67 3d
       -0.0040596724 -0.09016073 -0.10665618 0.05650341
000230 fb fa 1a be a0 de 67 3e 1e 43 62 3e 0f d6 fd be
       -0.15134804 0.22643518 0.22095916 -0.49577376
000240 79 27 06 3e ee 36 d0 3e fa ab a8 be c2 57 4b bd
       0.13100995 0.40666908 -0.32943708 -0.04964424
000250 18 3c 8e 3e b6 f0 89 3d 3d 9f 35 bd b2 40 b4 3e
       0.27780223 0.06735365 -0.044341315 0.3520561
000260 29 92 11 be ed 74 22 be 7c ce ba be bb 0c cc 3d
       -0.14215912 -0.15864916 -0.3648566 0.09963366
000270 02 62 0a bf 89 ff 3e be f7 7e aa 3d 35 1f a5 3e
       -0.540558 -0.18652166 0.08324998 0.32250372
000280 db 6b 89 3d bd a2 81 be 4b bd 31 be 01 38 41 bd
       0.06710025 -0.25319472 -0.17357366 -0.04717255
000290 69 a3 85 3d dc 39 54 3e ec a9 7c bc 0e 5f c1 be
       0.06525309 0.20725197 -0.015421372 -0.37767833
0002a0 7b 8e b9 3e 7f 38 20 bf ea b3 5c be 07 59 be 3d
       0.36241516 -0.62586206 -0.21553007 0.09294324
0002b0 37 35 f4 3e 71 84 04 bd 25 69 47 3e b0 61 e2 3d
       0.4769685 -0.03235287 0.19473703 0.11053789
0002c0 b9 5d 61 be 37 be bd 3e b1 18 1c be c9 ef 1f 3e
       -0.22008409 0.37059185 -0.15243794 0.15618815
0002d0 46 5b 6f 3e d3 32 8d 3d 3c 84 e3 bd df 75 b6 3b
       0.23374662 0.068944596 -0.11109206 0.0055682505
0002e0 55 b8 ea 3c 2e 40 23 bf 46 de 62 3e f2 07 ae bb
       0.02865235 -0.63769805 0.22155103 -0.0053110057
0002f0 67 bf 57 be f8 18 9a 3e c5 a6 d3 3e 3e 05 9f 3e
       -0.21069108 0.30097175 0.41338173 0.31058687
000300 c0 68 c1 bd 76 1c be be 3c 4a 24 3d 57 ea 41 be
       -0.094438076 -0.3713109 0.040109858 -0.1893705
000310 b3 8d f4 3c b8 62 de 3d fc 58 77 3e 03 a6 0a bf
       0.029852724 0.10858673 0.24155039 -0.54159564
000320 9b 80 d9 bd c2 cc bd be ad 75 c4 be b2 b5 af be
       -0.10620233 -0.3707028 -0.3837103 -0.3431831
000330 50 f1 75 be 79 b7 0b bd 50 1d 80 3e 84 4e f3 3e
       -0.24017835 -0.03411052 0.25022364 0.4752084
000340 bc df 4a 3e 24 15 f1 be 56 7a dc 3d 6d e6 86 3c
       0.1981191 -0.47086442 0.10765521 0.016467297
000350 d1 48 26 3e 1a b1 c4 bc f9 8c 44 3e cd 1f 0d bf
       0.16238715 -0.02401023 0.19194402 -0.5512665
000360 7d 4e be 3e 0f 73 db 3e 43 37 1b 3e 99 86 89 3e
       0.37169257 0.4286122 0.151578 0.26860502
000370 bf 2d 40 3e 4b 22 4e be d4 ed ff 3e 52 a8 41 3e
       0.18767451 -0.20130269 0.49986136 0.18911865
000380 68 bc 27 bc 66 d8 28 3e 10 d9 aa bd 4e 69 c4 3c
       -0.010237791 0.164888 -0.08342183 0.023975994
000390 94 65 04 bf 00 ac 4c 3e 57 8d 37 be 5d da 11 3f
       -0.51717496 0.19987488 -0.1792501 0.5697382
0003a0 85 a0 23 bd 2d 73 cb 3b 05 ef 87 3e 62 68 17 3d
       -0.039948005 0.0062087984 0.26549545 0.03696478
0003b0 08 eb 72 3e 2b 0b b2 be ca c7 e8 bd 4d d9 ce 3e
       0.2372247 -0.34774145 -0.11366232 0.40400162
0003c0 3b bd 20 3e 34 59 0a 3f 82 96 d1 be 30 6d ad bd
       0.15697186 0.54042363 -0.4093514 -0.084680915
0003d0 61 a3 c8 3e b4 0e bd 3d 5e f7 1f be e9 38 f6 3d
       0.39187148 0.0923132 -0.15621707 0.120225735
0003e0 61 e2 9c be 88 15 76 be 47 27 cd be c6 9d 5c be
       -0.30641463 -0.24031651 -0.4006903 -0.21544561
0003f0 fd 71 fc 3e 64 2e cb bd d6 9c a2 3b b6 51 a0 be
       0.49305716 -0.09920958 0.004962544 -0.3131234

model.0.bias f4 [64]
000000 50 77 20 bf 34 3b 26 be 27 3a 19 bf a7 d3 4f be
       -0.62682056 -0.16233522 -0.5985436 -0.20295583
000010 f1 a9 e7 bd 82 11 cd be 04 b2 06 bf 3e da 6f 3d
       -0.113117106 -0.4005242 -0.5261538 0.05855774
000020 67 86 94 be e7 0f 49 be 2c 10 b0 bd 0c 92 82 be
       -0.2900879 -0.19634973 -0.085968345 -0.2550205
000030 9d 29 0e 3d 6b d0 fa 3d 14 e7 4e bd 39 e5 d8 bd
       0.034707654 0.12246784 -0.050513342 -0.10590596
000040 c5 ef bc be c5 0f 68 be c0 54 c9 3d 36 26 c7 3c
       -0.3690168 -0.22662266 0.09830618 0.024310213
000050 4c b2 b3 b9 4c 43 94 be a8 d4 6a be 8f da 0f bc
       -0.00034274382 -0.28957593 -0.22932684 -0.008780136
000060 90 d0 b6 bd 19 7a 45 3d c2 13 27 be 0d 98 02 3d
       -0.08926499 0.048212145 -0.16316131 0.03188329
000070 4c 4c 6b be 05 26 b7 be 6c d6 89 bd a8 12 e1 be
       -0.22978324 -0.35771194 -0.06730351 -0.43959546
000080 2f 71 8a bd 80 3f db 3d 64 1a ab 3d b3 db ee bd
       -0.06759869 0.10705471 0.08354643 -0.11662998
000090 9c 1b 9f be 3d 90 93 be 41 32 ae 3d 60 0b 7b 3d
       -0.31075752 -0.28820983 0.08505679 0.061290145
0000a0 1b 22 54 be ad b9 2d 3e cf 8a b1 3e cb 0c 81 3d
       -0.20716135 0.16965361 0.34676215 0.06301268
0000b0 94 ba 7d 3e e1 d6 1d bd b9 e7 7e bd 21 bf a3 be
       0.24778205 -0.038535003 -0.062232707 -0.31981757
0000c0 89 5b 19 bf a7 da e3 bd 7e 86 fa bd 55 fb 08 be
       -0.59905297 -0.11125689 -0.122326836 -0.13377126
0000d0 69 58 9f bd e1 30 8a bd 01 2a 85 be 13 34 9d 3d
       -0.07780535 -0.06747604 -0.2600861 0.07675948
0000e0 7c 9d 80 be f9 5e b7 be f3 43 0a 3d 35 67 49 3d
       -0.2512015 -0.35814646 0.033756208 0.04917069
0000f0 9e 44 ec 3c 6b 4d 53 3e 59 fb 95 bd 26 d2 af be
       0.028841313 0.20635001 -0.073233314 -0.34340018

model.3.weight f4 [32, 64]
000000 cf 6c c1 bf bc 99 cd bd 00 98 73 3e 1a bb 0e be
       -1.5111331 -0.10039088 0.23788452 -0.13938561
000010 c8 5d 7f bf 32 cb f9 bd 46 f0 4f bf c1 de 9e bd
       -0.99752474 -0.121969596 -0.81226003 -0.07757331
000020 d5 02 fa 3d 62 94 65 3e e3 d5 bc 3d b5 20 3f bd
       0.122075714 0.22419885 0.09220483 -0.04666205
000030 d5 30 34 bd 18 9c 94 bd 65 39 97 bd 1f a6 07 bd
       -0.043991882 -0.07256335 -0.07383994 -0.03311741
000040 fd 10 5f 3d a7 81 b8 3d 8b 60 02 3d f1 93 cc bd
       0.05445956 0.09009104 0.03183035 -0.09989155
000050 f2 53 0e bd 8f db 1b bf 25 1b 03 bb 72 62 0b bf
       -0.034748025 -0.60881895 -0.0020005193 -0.5444709
000060 a2 59 21 3e f1 a9 01 3d 32 db e0 bc a8 0d dc bd
       0.15756848 0.03165621 -0.02744827 -0.10744792
000070 a0 11 70 3c cc f1 a6 bc 61 64 5d 3d 0b ef ce 3d
       0.01465264 -0.02037897 0.054050807 0.101041876
000080 db 7e a7 be d1 cb 14 3d 2e a9 40 bd 83 81 a5 3d
       -0.3271397 0.036327187 -0.047036342 0.08081343
000090 60 a8 ba be 1b be f3 3d da c0 61 bd 7d 3a ef 3d
       -0.36456585 0.11901494 -0.05511556 0.11681078
0000a0 89 5f 5f 3e 95 30 b4 3c 80 3e db 3c 7e 8b 99 3d
       0.21813788 0.021995822 0.0267632 0.07497309
0000b0 d4 15 dc 3d c5 3b 0f 3d f6 a0 61 3d 84 e1 08 3e
       0.10746351 0.03496911 0.055085145 0.13367277
0000c0 d8 6e 6f 3e 65 da fd bd 94 84 7e 3d e3 db 2d bd
       0.23382127 -0.12395171 0.062138155 -0.04244603
0000d0 59 95 17 3d bd e8 b5 3d 4f bf fd be a0 ed be bd
       0.037007663 0.08882282 -0.4956002 -0.09322667
0000e0 ac d9 44 3d 2c e8 92 3c 33 9a 16 3e 27 df 0a bd
       0.04805915 0.017932974 0.1470726 -0.03390422
0000f0 15 06 6f bc b4 a3 85 3c 1a c3 8f bc 82 fc 7e bd
       -0.014588852 0.016313411 -0.017549086 -0.06225253
000100 ee 8e 99 be 6a d6 03 bd 0d 7d 0d 3e 9b 2d 40 bf
       -0.2999186 -0.032186903 0.13817234 -0.7506959
000110 b7 d5 c5 bc f9 da dd bc c8 a5 84 be 25 d7 03 bd
       -0.024149759 -0.027081953 -0.2590773 -0.0321876
000120 e9 94 f8 3d 1e 95 f5 be 37 74 aa bd c1 b7 8b 3e
       0.12137777 -0.4796533 -0.083229475 0.2728863
000130 ae 63 5b be 63 17 91 3d f6 36 f2 bc 2e 64 7e bd
       -0.21424744 0.07084539 -0.029567223 -0.062107258
000140 e8 08 2e 3e b6 40 bb bc a8 d2 0f 3c 8d 23 da be
       0.16995585 -0.022858005 0.008778252 -0.42605248
000150 87 43 c2 bd 41 45 b7 3e da 84 c4 3c b6 ca 44 3e
       -0.09485536 0.35795024 0.02398913 0.19217953
000160 78 2c 8a be b2 02 2c be 12 31 a5 3e 3a d6 21 bc
       -0.26987052 -0.16797903 0.32264 -0.009877736
000170 69 92 a0 3e 71 8b b0 3d ea f2 6f 3c 61 ee 00 bf
       0.31361702 0.08620346 0.014645318 -0.5036374
000180 4b 77 86 3e 7d 60 59 3d ab 97 8e bd ff 87 94 3d
       0.26262888 0.053070534 -0.06962522 0.07252502
000190 c9 0f 1b bf 3c 61 81 3d f9 83 29 3d e6 8d 1b 3e
       -0.6057096 0.06317374 0.041385625 0.15190849
0001a0 37 9a 15 bd 94 07 16 3d 65 4c fc bc bd 9e 0e bd
       -0.036524024 0.03662832 -0.030798147 -0.034819353
0001b0 10 56 8f 3c d4 70 17 bb bf c0 8b bf 9b 85 b8 bd
       0.017497092 -0.0023108022 -1.0918196 -0.09009858
0001c0 78 f3 5b 3e 7e 6a 8e 3d b8 5d 36 3d 0b 8b de 3c
       0.21479595 0.069539055 0.04452297 0.02716591
0001d0 4e 82 2b 3e ee 14 2e 3e 7b 4c a1 bb 98 90 a2 3d
       0.16748926 0.17000172 -0.0049224473 0.07937735
0001e0 41 41 08 bf 06 44 20 3e 5c c3 fa bc 71 f6 4b bf
       -0.5322457 0.15650949 -0.030610733 -0.79672915
0001f0 10 06 b7 be ab 62 53 be 06 42 2b bf 75 14 01 3e
       -0.35746813 -0.20643108 -0.6689762 0.1260546
000200 2c 6b 4e 3b 6a aa a5 be fa d2 4f bd 0b 7e ef bd
       0.0031496985 -0.32356578 -0.050738312 -0.11693963
000210 fa 9d 22 bf 76 99 89 bd 16 8c 5f 3d c9 be bc 3c
       -0.63522303 -0.067187235 0.054576956 0.023040192
000220 25 c0 1a 3e c6 58 8e bd d2 5f 02 3c 42 9e 5b 3c
       0.1511236 -0.06950526 0.007957416 0.013404431
000230 6a 35 24 3b 74 d0 f1 bb 07 20 dc bd 7d 5c 4a bc
       0.0025056251 -0.007379586 -0.10748296 -0.0123511525
000240 0c a9 0f 3c ee cc f5 bb e9 74 9f 3d 0b 15 31 be
       0.008768331 -0.007501236 0.07785971 -0.17293184
000250 08 e4 23 bd 34 98 b2 bc 16 b8 41 bc 58 36 27 be
       -0.04001239 -0.021801092 -0.011823675 -0.16329324
000260 50 60 d2 3d ba 30 9e bd ec 90 9b be cf ed 18 be
       0.102722764 -0.077241376 -0.30384004 -0.14934467
000270 98 47 61 3d 2f c0 53 be a7 04 d9 3d 0c 89 d6 3e
       0.054999918 -0.20678781 0.105965905 0.41901433
000280 0e 86 33 bc 0d cd 90 bd a1 59 07 3e a6 f0 75 be
       -0.010957254 -0.0707036 0.13217784 -0.24017581
000290 12 a1 1a be 91 73 3c bd 71 6d e6 bd 58 ad b6 bd
       -0.15100506 -0.04600865 -0.11251343 -0.089197814
0002a0 a7 24 1c 3e d1 2c dc bd a2 21 32 3e 51 53 72 3e
       0.15248357 -0.107507356 0.17395642 0.23664595
0002b0 85 78 e5 bb 76 1d ed bd 23 a8 2a be 42 78 25 3e
       -0.0070028924 -0.11577885 -0.16665702 0.16159156
0002c0 55 f5 11 3f 40 df 43 bc c5 4a 3c bc f8 c8 47 be
       0.5701497 -0.011955082 -0.011492436 -0.19510257
0002d0 e1 9c 79 3d b2 f7 ca bd c0 75 a7 be 99 a4 8a 3d
       0.060940627 -0.099105254 -0.32707024 0.06769676
0002e0 bc 10 fe bd 6c 20 96 3d 76 a5 a8 3d 24 8f 46 3e
       -0.124055356 0.07330403 0.08234684 0.19390541
0002f0 b6 04 1c 3e 61 fb 66 3d 41 eb 35 bc c4 6e d6 3d
       0.15236172 0.056392077 -0.011103452 0.104703456
000300 3f f4 57 bf ce b3 3b bf 36 c6 2e 3e e4 15 d5 be
       -0.84357065 -0.73321235 0.17067799 -0.41618264
000310 f8 47 e1 be 74 55 03 3e 24 c2 f7 be 51 ca ba 3d
       -0.4400022 0.12825567 -0.48390305 0.0912062
000320 f2 9c 54 3b 8b 29 00 3e bf 33 c0 bc 30 73 d6 bb
       0.003244218 0.12515847 -0.023462174 -0.006544493
000330 68 4d 71 bd 31 12 bf bc e0 c8 49 bc 50 fe 1c bd
       -0.05891171 -0.023324104 -0.012315959 -0.03832847
000340 14 31 8c 3c 34 74 62 3d 13 42 4e bc a2 2e f8 be
       0.017113246 0.0552866 -0.0125889955 -0.48473078
000350 66 4a e8 3c c5 ff 77 bf 5f 4b 28 bd ea ee 05 bf
       0.028355788 -0.9687465 -0.041087504 -0.5231768
000360 68 07 9c 3d be 17 a5 be 64 07 7b bd 0a 15 f2 bc
       0.076186 -0.32244676 -0.061286345 -0.029551048
000370 70 df eb 3c 35 7e 33 3d 6f ef 82 bc 7f 63 88 3e
       0.028793067 0.043821532 -0.015983311 0.2663841
000380 f2 70 88 be f3 8c 70 3c cf 7e 4d 3d ab ac 39 3c
       -0.2664867 0.014682042 0.050169762 0.011332671
000390 09 84 d8 be f5 05 61 3d 34 fd ec 3d fe 1f 54 3d
       -0.42288235 0.05493732 0.11571732 0.051788323
0003a0 fb 25 a9 3d 18 05 26 3d 99 98 7b bd 28 7d 89 3d
       0.08259197 0.0405322 -0.061424825 0.06713325
0003b0 07 c1 81 bd 6f 0d 02 3e 68 47 82 be fe 83 01 3e
       -0.06335645 0.12700437 -0.25445104 0.12648007
0003c0 0a 46 59 3e 84 1e 55 3c b8 54 37 3d 05 4e 93 3d
       0.21218124 0.013007764 0.04475853 0.071926154
0003d0 17 2e 9e bc 0f 30 6f be 65 42 8b bf e0 6b 2c bd
       -0.019309087 -0.23358177 -1.0879637 -0.042095065
0003e0 83 a7 f9 be 3b fc ae bd 41 fd 0f 3e e5 83 53 3d
       -0.48760614 -0.08544203 0.14061452 0.051639456
0003f0 09 48 1c bd 75 5f 0c bd 43 71 f8 3d 02 3f de bc
       -0.038154636 -0.034270722 0.12130978 -0.027129654

model.3.bias f4 [32]
000000 01 9a 42 bc f4 ee 1b be d9 b6 a2 3e 09 dc 04 3e
       -0.011877538 -0.15227872 0.31780127 0.12974562
000010 9e 1c de 3d f7 b6 96 bd 25 90 e9 bd b0 a8 9f 3c
       0.10845302 -0.073591165 -0.114044465 0.019489616
000020 3f 92 f7 3d 95 04 be bd 3e 33 90 ba 25 2b 39 3e
       0.12088441 -0.09278218 -0.00110016 0.18082865
000030 12 11 28 3d 10 ed 29 be 1d 98 c1 3b cc 0c 43 3d
       0.041031905 -0.16594338 0.005908026 0.047619626
000040 95 15 b8 3d 47 8c 25 bd bd 81 ff 3d 49 ba e9 bd
       0.089884914 -0.040416982 0.124759175 -0.11412484
000050 50 5b 72 3d 4e 75 ff bc f0 a9 c6 bd 07 7d 04 3d
       0.059169114 -0.031183865 -0.09700382 0.032345798
000060 a6 92 03 3e d2 8b 1a 3e a5 78 ad bd 6f fe d0 3d
       0.1284891 0.150924 -0.08470277 0.10204779
000070 58 fb a9 3d e5 52 2a 3d 7a 79 31 be df a1 8b bd
       0.08299893 0.04158296 -0.17331496 -0.06817984

model.6.weight f4 [16, 32]
000000 d4 ad 33 3e 4b 47 cb 3e 77 e2 0d 3e 5c 03 84 3e
       0.17546779 0.3970283 0.1385592 0.25783813
000010 c3 fd 1b bf ae 5d c1 bd 6d 6c e6 be bc 9e b4 3d
       -0.60934085 -0.09441696 -0.45004597 0.08819339
000020 0a 26 3e 3e 8f 21 c2 be 86 d1 c7 bc 9b 71 d5 be
       0.18569198 -0.37916228 -0.0243919 -0.41688237
000030 ff 79 ab bd 65 f2 e1 be 43 43 cd 3d 72 0c 8c 3d
       -0.08372878 -0.44130245 0.10022595 0.06838311
000040 c9 52 57 3e c9 2f 0b 3e 95 fb 81 3e b4 11 ea 3e
       0.21027674 0.13592447 0.25387254 0.4571663
000050 ff 35 c9 3d 03 c9 59 3d ac de 3c bf fe 8e e6 be
       0.09824752 0.053170215 -0.7377727 -0.4503097
000060 0c 86 22 3e 18 c7 8d be 18 c5 2b bd 52 c1 cd be
       0.15871447 -0.2769096 -0.04193601 -0.40186554
000070 2f af 33 3e 43 17 4e be f2 df 07 be b9 61 24 be
       0.17547296 -0.20126061 -0.13269022 -0.16052903
000080 c6 be 0f 3e 55 38 75 be 65 73 3e 3e 58 66 b6 be
       0.14037618 -0.2394727 0.18598707 -0.35624957
000090 3f 6a a6 3e a6 c1 c4 be 19 d3 ee 3d 19 c3 0f 3e
       0.32502934 -0.38428992 0.116613574 0.14039268
0000a0 8c 13 a1 bd 90 b1 8e 3e 7a ec 7b be 9e 39 6a bd
       -0.078650564 0.27869844 -0.24601927 -0.057183854
0000b0 f6 97 06 3e 31 8f a3 3e 44 61 6d be 43 16 7a be
       0.13143906 0.31945184 -0.23181635 -0.24422555
0000c0 75 15 f0 3b fd e0 3d be 37 24 9d bd 58 90 3e be
       0.0073267766 -0.18542857 -0.07672923 -0.1860975
0000d0 9d f0 d6 be f8 4e 24 be df a1 36 3e 9d 05 21 3f
       -0.41980448 -0.16045749 0.17835186 0.6289919
0000e0 93 00 93 bb f4 71 05 be 46 66 3a bd 43 cd 02 3d
       -0.0044861524 -0.13031751 -0.04550769 0.031934034
0000f0 92 d9 30 3e 33 29 89 bc 15 66 cf 3d ca 9c af 3e
       0.17270496 -0.016743278 0.101268925 0.34299308
000100 00 dd 89 3e 5c eb f8 3e 45 57 97 3e 0a f8 a8 3e
       0.26926422 0.48617065 0.2955877 0.3300174
000110 e0 41 3f bf e5 f1 a8 bd 0a b4 89 be 1f ec c8 bc
       -0.7470989 -0.08249263 -0.2689517 -0.024526654
000120 a5 ac 0e 3e 97 a5 91 be 48 9f 48 3e d7 13 b9 be
       0.13933046 -0.28446648 0.19592011 -0.3614795
000130 00 19 68 be 60 a6 cd be 64 eb bf 3d f4 c6 4a 3d
       -0.22665787 -0.40165997 0.09371069 0.049506143
000140 c9 f1 9e 3d 85 b9 ee bd ab 33 84 3e 25 20 c2 3e
       0.077609606 -0.11656479 0.2582067 0.3791515
000150 e0 7a a8 3b 0f 6f 12 bd 5c 2e d5 be 9e 94 4b be
       0.005141601 -0.035750445 -0.41636932 -0.19880912
000160 40 14 58 3e 2e 47 01 bf 1c a8 59 3e 46 c0 ed be
       0.21101475 -0.50499237 0.21255535 -0.46435755
000170 8e 16 1a bc 56 25 be be 4b 40 19 bd 55 83 79 be
       -0.0094047915 -0.3713786 -0.03741483 -0.24366505
000180 e3 8a e1 3c e5 c0 92 bc 51 ec 75 3e d3 66 99 be
       0.027532047 -0.017914245 0.24015929 -0.2996126
000190 85 85 0b 3f 6f e8 ff be 9e c0 a0 39 de ed 20 3c
       0.5450061 -0.4998202 0.0003066109 0.009822337
0001a0 04 c7 5b be 94 58 3b 3e c8 5d 89 be 4b cc 1b 3e
       -0.21462637 0.18295509 -0.26829362 0.1521465
0001b0 ae 07 3a 3d 58 1a 5a bd 37 54 61 be 59 63 64 3d
       0.04541748 -0.05324778 -0.22004782 0.055758808
0001c0 59 38 85 bd 3d f5 b1 be d7 c8 1b be b8 43 67 be
       -0.06504888 -0.34757414 -0.15213333 -0.22584426
0001d0 3e 5f e2 be dd 75 4a be 2a e2 cc bd d9 7c 86 3e
       -0.4421329 -0.19771524 -0.10004075 0.26267126
0001e0 a6 52 e8 3a 73 25 8a bd 9d c1 88 bd 8b 9d 0e 3e
       0.0017724826 -0.06745424 -0.06677554 0.13927285
0001f0 b1 76 cb 3d a8 6d e5 3d f7 5f 04 be c0 4c b9 bd
       0.09934748 0.11202556 -0.12927233 -0.09047842
000200 2e 70 b8 3e 2d a0 b0 3e 54 11 b2 3d 06 29 ff 3d
       0.36023086 0.34497204 0.08694711 0.124589965
000210 4d 80 00 bf 5a a8 ed bc f5 70 76 be 6e 15 9e bc
       -0.5019577 -0.02901094 -0.24066527 -0.019297328
000220 d6 a1 90 3e f3 cd 37 be c4 ff b9 bd e9 bf 56 be
       0.2824847 -0.17949657 -0.090819865 -0.20971645
000230 8b 86 64 be 94 b5 7d be 51 23 2d 3c 33 09 c3 3d
       -0.22316949 -0.24776298 0.010567502 0.09523239
000240 67 25 e0 bd 12 ba 51 be b7 07 d4 3d 3a 89 06 3f
       -0.10944634 -0.20481136 0.10353034 0.5255314
000250 1a 43 53 be 85 52 53 3e ba d0 96 be 18 de c2 be
       -0.20631066 0.20636947 -0.2945612 -0.3806007
000260 80 c6 ef 3b 5a 21 8c be 09 ad e6 bc 8a 5e 87 be
       0.007317364 -0.27369195 -0.028158681 -0.26439315
000270 d6 f8 b3 3d da b5 19 bc 5c e7 ba bc d3 33 83 3c
       0.08787696 -0.009381736 -0.022815399 0.016015923
000280 dd 81 1f be 83 03 c8 be 99 bd bd 3d 77 a4 f7 be
       -0.15576883 -0.3906518 0.092646785 -0.48367664
000290 43 13 bd 3e 75 bb 06 bf 63 27 ba 3e 5c 1d a6 3d
       0.36928758 -0.52629787 0.36358175 0.081110686
0002a0 7c 0b fa 3b 9b e1 e4 3e 85 bf 02 bf a3 9b c2 3e
       0.0076307636 0.44703373 -0.51073486 0.38009366
0002b0 39 48 56 3c bc 57 9f 3e 95 e5 96 be ae 2a 64 3d
       0.013078743 0.31121624 -0.29472032 0.055704765
0002c0 01 19 82 be 79 e5 cc be 9b d2 ab be 06 65 d0 be
       -0.254097 -0.40018824 -0.33559117 -0.40702075
0002d0 d3 e7 3f be ab 6e 1a be aa 12 69 3e 49 db df 3e
       -0.18740778 -0.15081279 0.22761026 0.4372199
0002e0 fa c6 23 be b3 a5 ae 3e 8c 98 a3 be 98 6f 0b 3d
       -0.15993872 0.34110793 -0.31952322 0.03404197
0002f0 0c b5 3d 3e 0f b4 f2 3d 9b b4 a8 bd 25 65 98 3e
       0.18526095 0.1185075 -0.08237573 0.29764667
000300 36 7b c6 bc 02 e4 99 3e 62 92 36 bd 84 54 36 3e
       -0.024228673 0.3005677 -0.044573195 0.17805678
000310 ed 1f e7 be ed 3e c1 3d d9 9c 89 be 19 16 0d 3e
       -0.45141545 0.0943583 -0.26877478 0.13777961
000320 76 c8 08 be da 45 31 be b4 37 ac bd 62 2b 9b bd
       -0.1335772 -0.17311803 -0.08409062 -0.07576634
000330 51 02 85 be 0d fd b8 be 02 fa b6 3d fd 9e f9 bd
       -0.2597833 -0.36130562 0.08934404 -0.12188528
000340 7b d6 8d 3e 47 b5 d3 3d 44 72 e7 3b 6a aa d6 3e
       0.27702698 0.1033731 0.007063182 0.4192689
000350 7a 27 88 bd 84 39 ac 3b c1 e0 d3 be bf 30 db be
       -0.066481546 0.00525588 -0.4138241 -0.42810628
000360 fb 57 85 3e c6 59 e7 bd f1 71 2e 3d 9b 25 ae be
       0.26043686 -0.1129642 0.04258913 -0.34013066
000370 a4 61 6e 3e 7e 5a 26 bd 6f e9 4c 3e 97 78 6a be
       0.23279434 -0.040613644 0.20010923 -0.22897564
000380 08 1c 63 be 23 22 5a be 90 8e 4a 3e 4e 44 16 bf
       -0.22178662 -0.21302085 0.19780946 -0.58697975
000390 be b6 d2 3e 82 d0 ac be dc 03 73 3e 20 9d 3b 3e
       0.41155046 -0.3375283 0.23731941 0.18321657
0003a0 49 2d 89 be 3a 7a d5 3e d7 a8 cd be bb 44 ad 3c
       -0.26792362 0.41694814 -0.40167877 0.021150937
0003b0 24 23 28 3e 36 50 a5 3e 57 5b ec bd 22 f5 df be
       0.16419655 0.3228776 -0.11540859 -0.4374171
0003c0 94 15 c5 be bc 90 be be c7 e3 db be 16 46 3d be
       -0.38493025 -0.372198 -0.42947218 -0.18483767
0003d0 7e 71 bd be 47 0d 96 be 98 fb d3 3d 0f d8 ed 3e
       -0.3700065 -0.29307005 0.10350722 0.46453902
0003e0 4e fc 91 be 56 5f 5d be d6 e0 43 be 3f 64 66 3e
       -0.28512806 -0.21618399 -0.19128737 0.22499178
0003f0 49 03 b3 3e d5 75 4f 3d b7 be 94 bd 2e 4b 1d 3e
       0.34963444 0.050649483 -0.072629385 0.1536071

model.6.bias f4 [16]
000000 70 8b ec 3e ab 0a 36 3e 46 db de 3e 16 ca 8c 3e
       0.46200132 0.17777507 0.43526667 0.2749793
000010 d7 94 83 3e 6e ea a2 3e 6d 89 9c 3e 55 63 66 3e
       0.25699493 0.3181948 0.30573598 0.2249883
000020 99 9a df be e6 b1 aa 3e e6 8a c4 3e 6c 4a f8 3d
       -0.43672636 0.3333885 0.3838722 0.1212357
000030 39 90 94 3e aa 4f b7 3e 3d 8b b5 3e a8 ac ab 3e
       0.29016283 0.35802966 0.35457793 0.33530164

model.8.weight f4 [1, 16]
000000 c5 27 be 3e 7a 28 ed be a4 7b da 3e 51 9d fa be
       0.37139717 -0.46319944 0.42672455 -0.48948148
000010 a0 bf d2 3e c8 9f 21 bf d2 c4 a1 3e 57 5c f7 be
       0.41161823 -0.6313443 0.31595474 -0.48312637
000020 fc 6e 01 bf 92 d2 d0 3e 50 52 dc be e8 fa d0 be
       -0.50559974 0.40785652 -0.4303155 -0.40816426
000030 dc b2 1b bf 7c d2 f4 3e 83 c9 e3 be 0e 7a cf be
       -0.6081979 0.47816837 -0.4448968 -0.40522808
