models/data/results_20241028_145635/best_stroke_model.pth (torch, 16248 bytes, 7 tensors)

model.0.weight f4 [64, 8]
00000000: 6053 10bd 0703 8cbe d5bf 403e 7196 cabe
00000010: ab55 8dbc 2c3b 8b3e d082 97be d110 403e
00000020: f887 3abe 7629 d0be cf61 dabe a175 1d3e
00000030: 66e6 c1bd 5d20 f53d b2d5 b8bc 630b c4be
00000040: 17d2 c23d ee01 a33e 2242 86be 9641 88be
00000050: d0ee a63d 2f67 7a3e 4dad 0c3e 7006 15be
00000060: accd 5d3e 295b c6be 8a36 883d 3ede 8b3d
00000070: 599f 38be e6a7 85be 108a 88be 37a3 5c3d
00000080: 583a 923e df5b 1d3e 66e8 3b3d c461 2b3e
00000090: dc4c 9a3d ef7d 9a3e 5007 2dbe 3e04 4d3e
000000a0: 3f5f a2be d29f 913e aaf3 64be 7eb6 c33d
000000b0: 2d79 89bc d578 9cbe e7f5 cfbe 2eab 963e
000000c0: 7f6f 34bd 0ff3 a53d 694c 3e3e a334 c23d
000000d0: eeaa 80be 2c5f 5e3e 344b b8be 22e4 c93d
000000e0: 103b 96be 55ba 9b3e 01da ccbd 5882 0d3e
000000f0: ef19 a93e 5259 3abd 5a75 4d3e 1ed4 89be
00000100: 88a2 b23e da54 e1bd 271b a0be f46c d93d
00000110: 6f74 b8bd 077d 993e f462 083e c562 8e3e
00000120: 1130 80bb 75ac 703e 58d9 903e adfd 0c3d
00000130: 2560 a4be 01da 523e 74d1 813d daf8 c9bd
00000140: 680f adbe c421 3e3e bb21 68be a9e8 983d
00000150: d702 8a3e 3fb7 2c3e 5c79 843e d019 dbbd
00000160: e305 143e e5fd ab3d cace 973d b2a9 843e
00000170: b42e a33e b064 67be 241a c23e e04d 1a3e
00000180: 23cf 003e 43d0 28be 5048 a9be 68d2 8f3e
00000190: 3b0e c5be 63c5 b03d 0355 093c a0d8 f63b
000001a0: 5f5a d1ba 2337 7bbe debe 8ebe 596f 8f3e
000001b0: f960 773e 6faf cabe 1cf0 fabd afd8 e63d
000001c0: 102f a03e eba5 8fbe a946 dbbb de69 aabe
000001d0: 0733 863e 2272 893e 784b 44bc 63d0 83be
000001e0: f75a 51be b703 b03d 9eb7 953d fb49 dcbd
000001f0: 6883 883d 365b c23d 2157 acbe b1b3 8dbe
00000200: 0da7 823e f2e1 e43c e45a b4be a67c 623d
00000210: 48b1 abbd 70ef 5abe 0972 89bd 0919 9b3e
00000220: 066a 913e 837e a3be 8e9a 94be 00cf adbe
00000230: 8cd5 34bc a328 8a3b 2efd c0be 82f9 81be
00000240: 3865 8cbe 311f f4bd 7cd4 6a3e d263 4abd
00000250: e801 773e 122f 83be ce15 efbd cab9 283e
00000260: 0fac d43e 5ed7 4ebe decc 30bd a47b 4dbe
00000270: e22f 213e cff8 89bd 1e17 e83d 6fc0 b7be
00000280: 5e41 bfbd cc2e 17be a970 bdbe dee2 2dbe
00000290: 92fb 85bc 6594 5e3e 19bf e0be 7a1b 79bc
000002a0: 4876 b13e cb92 583e f7e6 abbc 7cbd 6bbe
000002b0: 8a08 aa3e 1f02 a2bc 523e 87be 044c 69be
000002c0: 3223 89be 9688 8c3d e7de a8be 6b48 443e
000002d0: 18e4 9abe 27be d93d eb24 2abe 0d58 09be
000002e0: cda6 313e d1f8 67be a7a7 833e 5bdb f33c
000002f0: 6aef 2f3e 0f2c 07be 533a f9bd 607c f2bd
00000300: 4ded a9bc 3541 fcbc 584b 253e 85b1 9fbe
00000310: bd2f 8cbe c307 69be f3c0 58be f34e 1dbe
00000320: f594 bf3e 6bdf ad3d 66fd 773e 293c 38bd
00000330: 62cb c7be 94bf cfbe 8994 a23e 2d29 63be
00000340: fcf6 553d 4f8a 4ebe 0f0e a63c 20a5 a0be
00000350: 73fa 893e 16a7 853e e75c 4e3e 0379 92be
00000360: 7b56 bdbe 5573 273c 54a7 5ebd d521 cebe
00000370: dcd8 6e3e 18ff f93c 7f28 40bd 42d5 273e
00000380: 3f58 ccbc fa3e 663d 1b8c 823e 83c9 55be
00000390: 7752 5d3e 3498 633d d53f 053e 8b56 74bc
000003a0: f49c 81be 2af0 743c 7e33 1dbd 1b61 88be
000003b0: 3195 683e 1511 a4be 433c edbd 8909 c83d
000003c0: f743 adbe 564c 87bd fc0e 4cbe c8a4 13bc
000003d0: 518e c1be f622 2a3c 4b7b 84bd c39b c9be
000003e0: 54d8 903e f65a d5bc 415a 6e3e 0b86 133e
000003f0: 718b aebd 8565 45be fc41 9fbe ffb4 dfbc
-0.035235763 -0.2734606 0.18823178 -0.39567903 -0.017252764 0.27193582 -0.2959199 0.18756415
-0.1821593 -0.40656632 -0.42652747 0.15376903 -0.09467773 0.119690634 -0.022562835 -0.38289937
0.09512728 0.3183741 -0.2622233 -0.26612538 0.081510186 0.24453424 0.13737984 -0.14553237
0.21660489 -0.38741425 0.066510275 0.06829499 -0.18029536 -0.2610466 -0.26667833 0.05386659
0.28560138 0.15367077 0.04587593 0.16736513 0.07534191 0.30174205 -0.16897321 0.2002115
-0.31713292 0.28442246 -0.22358575 0.09556292 -0.016781414 -0.30560938 -0.40617296 0.29427475
-0.044051643 0.081030004 0.18583836 0.09482696 -0.2513041 0.21715993 -0.35994875 0.09857966
-0.29341936 0.30415598 -0.100025184 0.13819253 0.33027598 -0.04549534 0.20064297 -0.26919645
0.34889627 -0.11002512 -0.31270716 0.10616484 -0.09006583 0.299782 0.13318998 0.2780973
-0.00391198 0.23503287 0.2829082 0.03442161 -0.32104602 0.20590974 0.06338778 -0.09861918
-0.33800817 0.18567568 -0.22669117 0.074662514 0.26955292 0.16866778 0.2587384 -0.10698283
0.1445537 0.08398036 0.07412489 0.25910717 0.3187157 -0.22597003 0.3791057 0.1506877
0.12579016 -0.16485696 -0.33062983 0.28090215 -0.3848742 0.086313985 0.008382085 0.007533148
-0.0015972367 -0.24532752 -0.27879995 0.2801464 0.24158086 -0.3958697 -0.122528285 0.11271798
0.31285906 -0.28056273 -0.006691773 -0.33283895 0.26210806 0.2684489 -0.011980884 -0.25744924
-0.20444857 0.085944586 0.07310413 -0.10756298 0.06665689 0.09490053 -0.33660224 -0.27676156
0.25518075 0.02793977 -0.35225594 0.055294655 -0.08383423 -0.213804 -0.067112036 0.30292538
0.28401202 -0.31932458 -0.29024166 -0.3394699 -0.011037242 0.00421627 -0.3769316 -0.25385672
-0.27420974 -0.11920012 0.22932619 -0.049411602 0.24121821 -0.2562185 -0.11674081 0.16477123
0.4153752 -0.20199344 -0.043164127 -0.20066696 0.15740922 -0.067369096 0.11332534 -0.35889003
-0.0933864 -0.14763945 -0.37000015 -0.16981074 -0.01635531 0.21736296 -0.43895796 -0.015204305
0.34660554 0.21149747 -0.020984156 -0.23021501 0.3320964 -0.019776402 -0.26414734 -0.22782904
-0.26784664 0.06861989 -0.3298256 0.1916825 -0.30252147 0.10631972 -0.16615646 -0.13412495
0.17348786 -0.2265351 0.25713846 0.029767683 0.17181173 -0.13200401 -0.121693276 -0.11840129
-0.020743037 -0.030792812 0.16142023 -0.31190124 -0.2738017 -0.22756867 -0.21167354 -0.15362148
0.37418333 0.08489879 0.24217758 -0.04497925 -0.39022356 -0.4057585 0.31753948 -0.22183676
0.052237496 -0.20169948 0.020270376 -0.3137598 0.2694889 0.2610404 0.20152627 -0.2860795
-0.36980042 0.010220368 -0.054358795 -0.40260187 0.23324913 0.030517146 -0.04691362 0.16389945
-0.024944423 0.056212403 0.25497517 -0.20877652 0.21613489 0.055565074 0.13012631 -0.014913212
-0.25315058 0.014949838 -0.038379185 -0.26636586 0.22713162 -0.32044283 -0.1158376 0.09767444
-0.33840916 -0.06606357 -0.19927591 -0.009011455 -0.3780389 0.010384312 -0.06468829 -0.3937665
0.28290045 -0.02604435 0.23276617 0.14406602 -0.0852269 -0.19277008 -0.3110503 -0.027307985

model.0.bias f4 [64]
00000000: 0a01 af3e 87a5 803e 9ffc 273c d235 8c3e
00000010: f1af cd3e c84c 1f3e af86 3d3e 468c 0bbd
00000020: 6772 79be 9286 9bbe 75a0 8e3e 2b6a bfbc
00000030: 6856 c73d aeb3 c03e 8ec8 863e aeca a93e
00000040: 0841 7cbe aa43 983e 524b bf3c dd1a 97bc
00000050: 1c4c b23e 44f8 013e a403 bd3e 1446 003e
00000060: 1e30 273d a639 0bbd 2b52 2dbd 8818 cf3d
00000070: 872c ee3c 14d9 22be 357d a13d d417 6bbe
00000080: 5ec6 8dbe 4e48 76be 2470 53be cf0f ef3d
00000090: f165 06be cff6 9b3e 8537 99bd aa54 5abe
000000a0: 25b5 353e 5cf1 853d de3d a3be 70da b03d
000000b0: 706d dc3e e19a 963e 2ab9 e93d 4781 853d
000000c0: 7d1e 7b3e 2592 a9bb 6682 cd3b 5d37 96bd
000000d0: 623a 793b 14bf b43e a447 b63c 7ecd 7abe
000000e0: 663f cabd 09e3 9a3e d9f9 e63d f677 73be
000000f0: ceae ad3e 9e05 c43e 2267 2cbd a1ab 3d3e
0.3418048 0.25126287 0.010253101 0.27384812 0.40173295 0.15556633 0.18508409 -0.034069322
-0.24360047 -0.30376107 0.27856794 -0.023366055 0.097332776 0.37637085 0.26324886 0.33162445
-0.24634182 0.29739124 0.023351345 -0.018445427 0.34823692 0.12692362 0.3691684 0.12526733
0.040817373 -0.033990525 -0.04231469 0.10112101 0.029073967 -0.15903121 0.078852095 -0.22958308
-0.27690405 -0.2405102 -0.20648247 0.11672937 -0.13124825 0.30461738 -0.07481293 -0.2132136
0.17744882 0.06540176 -0.31883138 0.08635414 0.43052244 0.29415038 0.1141227 0.06518798
0.24523349 -0.0051748925 0.006271648 -0.073347785 0.0038029184 0.3530203 0.022250958 -0.24492452
-0.098753735 0.3025134 0.112781234 -0.2377623 0.33922428 0.38285536 -0.042090543 0.18522502

model.3.weight f4 [32, 64]
00000000: 6571 b53d 523b 343e c219 16bd 851f 44bd
00000010: ffbd d8bd ad10 2fbc c983 f8bc 65aa 79bd
00000020: d363 ab3d 9686 fa3d fd32 5d3d eb36 a53d
00000030: 894d a63d f197 1d3e 3523 e4bc a687 783d
00000040: 4578 ccbd 502f 143c 5faa edbc 6946 083d
00000050: 2a16 233e 25bb 93bc 600f 133e f22e b43d
00000060: f836 c9bc c47c 3abd 4459 0bbd e6ff 7c3c
00000070: 1660 db3c 4ea1 033e 200e 8abc 90c9 fc3d
00000080: e414 063e ee43 ddbd d517 0c3e f361 1f3d
00000090: c382 c83c aebc 76bd 1e42 12bd 590c 143d
000000a0: 07b6 303b 043e 783c 2316 413c 7423 02bd
000000b0: 7020 c13d cb6c 393d 0e65 80bd 75df 023d
000000c0: 7b77 653d 4114 95bc c83b 2ebd e9b0 fe3d
000000d0: f983 a9bd a6b0 d03d d1fe 303d 0421 683d
000000e0: 4ee8 173e 2dea 233e a196 103e dcca 303e
000000f0: 48f9 c5bc 6288 3c3e 5150 bf3b e856 40bd
00000100: d379 043e ba83 b33d 39d5 b43d 6639 d73a
00000110: be0b e63c 28fc 363e 98ca 41bd a1e3 a4bd
00000120: 04d7 e1bc b306 64bd 2544 bdba 5fec 77bd
00000130: ccdb 493d 85df 2d3e a9c5 1b3d fffb a03a
00000140: 2590 e2bc 7823 003e 27ae 633d 8261 ff3d
00000150: 39d4 613c 8841 09bd 0a5d 02bd 85b1 153d
00000160: ffe3 433d 153a abbc 1b47 263e ee23 013e
00000170: b2e5 9b3d d53f ac3d 91bb ee3c 0591 a5bd
00000180: c139 9cbd e43d e9bd 3627 0ebd a203 0b3e
00000190: 4789 e1bc 7d20 1a3d 528a 53bd 3267 153e
000001a0: d216 07bc ed09 aa3d 7d11 ff3d 235b e83c
000001b0: c8fe fb3c 1aee 1c3e 3532 083d 6e5b 203e
000001c0: 23fc 94bb d093 47bd eb59 38bd be1a f73d
000001d0: bf25 e4bc 9b5f 3b3e 8d74 323d 936a 013e
000001e0: e0b3 c2bc b7cf 483e f824 3abc 8267 db3d
000001f0: 9d8d ed3b 5cd9 473d d70e d73d 229d ee3d
00000200: b4d2 5c3d bbba 383d 0823 053d 6b4a e3bc
00000210: 4f03 71bd 60cf c0bd 65cd bdbd 4782 86bd
00000220: 9eaf c03d 248a 673d 8f90 abbd bdcc 8bbd
00000230: 8990 85bd bc59 a83d dc7b e1bd 5fe4 a7bd
00000240: 01ab 44bd c30f 663c ef31 193d a640 6cbd
00000250: 93a3 a03d 1da9 f33d 5495 63bb 9e7c 903d
00000260: 4fbf cebd 670c 9d3d ba1a 94bd 5343 d33d
00000270: 5903 093e 00c4 9b3c 8e49 bf3d e270 a83d
00000280: d823 fabd a9d9 343c 6626 5bbd a699 02bc
00000290: dfc6 03be 7a57 36bd 98ff a0bc c076 153d
000002a0: 5087 c7bd 37d3 ba3d a615 14bd 4a53 c2bd
000002b0: beb9 c73d df6a 6b3d 0f13 ddbd 4d3d 553c
000002c0: b1d4 b63d 58cc e53d 4ef0 8ebd 199f 01be
000002d0: bcef 373c 2de7 ddbd ddee 3abd 90fd 22bd
000002e0: e395 0e3c 1367 01bc 07c2 dcbd b110 623d
000002f0: e103 763c b7fb 2fbc 6035 0a3d 9d40 aabd
00000300: ab55 093e 0960 13bd 2129 083e 04de 933d
00000310: 8f20 6a3d 0688 c43d d9da d5bd 7fa1 9b3d
00000320: d1fd 503d f52b 2e3c f790 973d 2d45 793d
00000330: 17fb 3bbd 1a20 3fbb 48ad a4bc d54a c03d
00000340: bae2 dabd 17c3 883d 9327 97bc 8c38 95bd
00000350: 17a8 41bc 5abc b83d c17b e2bc 3076 f83c
00000360: b052 8bbd 7b8d 5cbb f1ce a53d cc07 9d3d
00000370: 9869 0d3d 4ac3 5cbd 2620 dd3c f747 9fbc
00000380: 6fc2 d6bd f6d2 f7bd 9216 40bd 7c9d aa3d
00000390: 7b76 27bd c796 633b 4c3f 02be 81bd 763d
000003a0: 9607 d23d 010b 3ebd bb4e e1bd 9b39 e2bd
000003b0: 4db8 ccbd c4d8 51bd eb34 b2bd 95e0 02bd
000003c0: 04c4 9fbc ee0f ff3b 2e11 8d3c 7cda 553c
000003d0: 4fa7 a5bd 94bf d4bd 7740 31bd 16a9 8a3d
000003e0: 5666 de3d c007 133e 14e6 db3d 7177 3b3d
000003f0: fc1d 0f3e 5c0b 033e b0a1 cc3d b022 efbd
0.08859519 0.17600754 -0.03664566 -0.047881622 -0.10583114 -0.010685128 -0.030336278 -0.060953517
0.08368649 0.122327015 0.054003704 0.080671154 0.081202574 0.15389992 -0.02784882 0.06067624
-0.09983877 0.009044483 -0.029011903 0.033270273 0.15926424 -0.018033573 0.14361334 0.087980166
-0.024562344 -0.045529142 -0.034020677 0.01544187 0.026779216 0.12854502 -0.016852438 0.123431325
0.13093907 -0.10803972 0.13680966 0.03891177 0.024476415 -0.060238533 -0.035707586 0.03614459
0.0026963966 0.015151504 0.011785063 -0.031772092 0.09430015 0.04526977 -0.06269275 0.031951386
0.05602215 -0.018198134 -0.04253748 0.12436087 -0.08277125 0.10189943 0.04321176 0.05667211
0.14834711 0.160073 0.1411996 0.17264885 -0.024166718 0.18411401 0.005838432 -0.04695788
0.12937097 0.08765359 0.088297315 0.0016420304 0.028081771 0.17869627 -0.04731235 -0.08051229
-0.027568348 -0.05567045 -0.0014439864 -0.060528155 0.04928188 0.16979797 0.0380303 0.0012282132
-0.027656624 0.1251353 0.055586006 0.1246977 0.013783508 -0.03350976 -0.03182701 0.03654625
0.047824856 -0.02090172 0.16238062 0.12611362 0.0761217 0.084106125 0.029142173 -0.08084301
-0.07628203 -0.11388758 -0.034705363 0.13575605 -0.02753128 0.03762864 -0.051645584 0.14590147
-0.008245187 0.083026744 0.124545075 0.02836377 0.030761138 0.15325204 0.033251006 0.15659878
-0.0045466586 -0.04872495 -0.045007627 0.120656475 -0.02785003 0.1829819 0.043568183 0.12638311
-0.023767412 0.19610487 -0.011361353 0.10713102 0.0072495476 0.048791274 0.10500877 0.116510645
0.05391188 0.045099955 0.03250411 -0.027745446 -0.058841046 -0.09414554 -0.092676915 -0.06567817
0.09408496 0.056528226 -0.08377182 -0.0682616 -0.065217085 0.082202405 -0.110099524 -0.08197855
-0.048014645 0.014041844 0.037401136 -0.05767884 0.07843699 0.1189749 -0.0034726458 0.07055019
-0.10095083 0.07668381 -0.0723166 0.103155755 0.13380183 0.019014359 0.09340201 0.08224656
-0.12213868 0.011038222 -0.053503416 -0.007971203 -0.12868832 -0.044517018 -0.019653127 0.036490202
-0.09742606 0.09122317 -0.036153458 -0.094885424 0.097522244 0.057474967 -0.10794651 0.0130151035
0.089272864 0.11220616 -0.06979428 -0.12658347 0.011226591 -0.10835109 -0.045637954 -0.039792597
0.008702728 -0.00789811 -0.10779195 0.0551917 0.015015573 -0.010741166 0.03374231 -0.08313105
0.13411586 -0.035980258 0.1329694 0.072200805 0.057159957 0.09596257 -0.104421325 0.07599162
0.05102331 0.010630597 0.07400697 0.060856987 -0.045893755 -0.002916342 -0.020102158 0.09389273
-0.10687776 0.066778354 -0.018451488 -0.07286176 -0.011819861 0.090203 -0.027646901 0.030329794
-0.06802881 -0.0033653665 0.080961116 0.07667503 0.03452453 -0.05389718 0.026992869 -0.019443495
-0.10486304 -0.121007845 -0.046896525 0.08330819 -0.040884476 0.0034727321 -0.12719458 0.06023932
0.10255353 -0.046397213 -0.11001345 -0.110461436 -0.0999609 -0.051232114 -0.087014996 -0.03195246
-0.019502647 0.0077838814 0.017220106 0.013052579 -0.08088552 -0.10388103 -0.04327437 0.06770532
0.10859363 0.14358425 0.10737243 0.045768205 0.13976282 0.12797302 0.09991777 -0.11676538

model.3.bias f4 [32]
00000000: dced 953b b229 ad3d 7289 3d3d 021b 133e
00000010: 09ad 133e 59a6 163d 1748 b63d cf75 8c3d
00000020: 43cb 6a3d cae5 ed3c 2422 eabc 1f04 763d
00000030: db6c 9fbc d702 2b3e 7f6b 593d 7c91 0fbd
00000040: 6de3 4ebd 68f9 013e 547e 033e 3cea 283d
00000050: 1d54 723c ad87 2d3e a6fd 3bbc d12f 173e
00000060: f361 6d3b 6aa1 d63d 57e4 933d 43bc 313d
00000070: 0a89 1a3e 6871 133d 255d 423e a5bd eb3d
0.004575474 0.084552184 0.046273656 0.14365771 0.14421476 0.036779735 0.08900469 0.06858408
0.05732275 0.029040236 -0.028580733 0.060062524 -0.019461086 0.16700302 0.053081032 -0.035050854
-0.05050986 0.12692797 0.12841159 0.04123901 0.014790562 0.16946287 -0.011474049 0.14764334
0.0036221712 0.10480006 0.07221287 0.04339243 0.15091339 0.035996825 0.18980844 0.11510781

model.6.weight f4 [16, 32]
00000000: 2792 3fbd e253 1cbe 8bff babc 042d 46bd
00000010: 42ba 163e cf09 03ba bcf2 f63d 0431 d23d
00000020: 72b4 93bc 2738 4ebd 563a 3dbc 08c1 a2bd
00000030: faca b03d eb6a 1e3e 553c 493c f8ae bebd
00000040: 17c0 173e 8682 9a3d 06c8 9abd 3757 a5bd
00000050: ab2e 9fbd 77d0 7ebd fd05 ee3d 2f2c 26be
00000060: 3801 ff3d 911c edbd ecb8 993d 1202 0cbe
00000070: bb80 70bc a420 ddbd cb48 8d3c ed4a 203e
00000080: f7ad 743e 1d68 b6bb 1cac 733e 019f 4d3e
00000090: d4f7 57bd 582b aa3d f9cb 473e c4e4 36bd
000000a0: 046d 3cbd 58b2 c7bd 11be 14be 75f5 1a3e
000000b0: 7310 7ebc 9981 42bd bc1b 043e bd1d 8dbd
000000c0: 407c 5c3d b585 673e 1138 143d d684 7f3e
000000d0: 3812 8dbd b94b e8bc 3b70 0ebe 0775 9e3d
000000e0: 6c55 6bbc ba6b 283c 0648 aebd 6fd7 66bd
000000f0: fd70 1e3c 16ec ba3d fe99 3d3e 861f c73d
00000100: 01f9 973c b3b6 4b3d 12b5 3dbe 667f a6bb
00000110: 3984 cd3d 6864 42be 3448 00be 039b 5e3d
00000120: ac26 133e 3c58 88bd ee2f 18be 6223 2abe
00000130: cde0 29be 2946 8bbd 4eee 543d b0f5 08bd
00000140: 4cf6 bfbd c729 623d abb5 1bbe 3aa2 663d
00000150: 24dc 833d b52a 6abd 88d8 1ebd 94e7 4fbd
00000160: 47c3 0439 b4f5 45be fd54 f3bd dff0 eebc
00000170: 4297 b9bd 381e de3d f7a3 d3bc 9fc2 04be
00000180: a862 113e db24 593e 8f4d a13d d625 043e
00000190: 67b0 823e ab22 2f3e 895e f63d 61c4 6d3e
000001a0: 3878 a5bd 8867 fdbd 0a43 d63c 1d7b a6bd
000001b0: d0c9 0ebe 00e0 743e 10c4 383d fcf1 af3d
000001c0: 3a34 ecbd 2bb1 ed3d 31db 713e 5fd7 363e
000001d0: e1b7 fb3d ef09 d93c 4eca 88bd 57fc 863e
000001e0: 32e4 de3d 4ed1 513c 5fe3 013e 748a 53bd
000001f0: cae5 563e d8ae 153e 9270 a23d b76b e5bd
00000200: 4900 7d3e 8f21 493d a151 8e3d c274 663d
00000210: d412 b9bc f847 753e 5470 bdbd aa6f 493e
00000220: 6da8 cdbb 94f4 633d 4ba5 0dbe 9928 56bd
00000230: 7d63 143e 2d28 27bd 4028 563e 304d 863d
00000240: 3b97 983d 872f e63d 3625 febc 7fce 303e
00000250: 8b06 c63d 20d8 fc3d 727c 08bd 4b75 f33d
00000260: b33d 41be 9fa4 243d d945 3b3e f3fe 03be
00000270: 68c8 e1bd 71a8 2f3e cc54 7cbb 2e1d f3bc
00000280: 97f7 debc b4f1 3e3e bf73 52bd fc42 d13b
00000290: 9bb3 42bc 7033 853e b3ef debc 52d3 193e
000002a0: 9f3c 493e ce74 f43c ff34 e2bd cdf1 78bd
000002b0: f859 a93d 3911 243e 6715 2b3e b10d eb3d
000002c0: d172 78bc f87b 6bbc ecb5 5a3e 0d23 4e3e
000002d0: b5af 273e a74b aebd 655e bebd 1e97 3d3d
000002e0: 0937 e8bc 5679 933c 31fe 173e 0782 cc3d
000002f0: 054b 113e c688 033e 1bfe 5c3e 6c32 f13d
00000300: 7795 3abe 05d7 efbd 0bbe 1e3e 0e0e d13d
00000310: 2e07 9a3d fd94 183c 878a 45be 270d e63d
00000320: a3df 3b3c 431b 7a3d 0223 133e b51b 0ebe
00000330: 1cf8 923d df04 afbd ddbf 0a3d 104e dd3d
00000340: e802 35be 6696 3dbe 4c9f aabc e992 b8bd
00000350: 7d99 153e 47c6 ea3d 0681 a33c be25 3abe
00000360: ec7c ba3d 862c 4c3d 16fb cfbd 8dc9 c1bd
00000370: 304d 2fbd 2439 f43d bca8 e2bd 2902 b4bd
00000380: f585 d23d f65a 6dbd 7b12 05bd eee4 28bd
00000390: ffd7 bcbc 3a4e 18be 272b cf3c d5f7 883d
000003a0: 5cae aa3d 0c79 18be 0814 b7bd 6b98 13be
000003b0: 6689 1b3c 377e c43d 02d1 213e ae15 273d
000003c0: 2c1c 03bd fa10 0bbd 7b5d 0dbe e719 53bd
000003d0: 0e7f 2dbd 8332 87bd 02db d23d 6e42 03bd
000003e0: e62d 20be 45c9 f03d 617d 5bbd 9e10 3ebd
000003f0: 4661 87bc 222a ac3a e910 9ebd d6bf 59bc
-0.04677024 -0.15266374 -0.02282693 -0.048382774 0.14719489 -0.0004998715 0.12058017 0.10263255
-0.018030379 -0.05034652 -0.011549553 -0.07946974 0.08632465 0.15470473 0.012282451 -0.093107164
0.1481937 0.075444266 -0.07557683 -0.080732755 -0.07772573 -0.062210526 0.11622236 -0.16227792
0.12451404 -0.11577714 0.07505974 -0.13672665 -0.014679129 -0.10797241 0.017246624 0.15653582
0.23894487 -0.0055666105 0.23796123 0.20080186 -0.05272658 0.083090484 0.19511403 -0.04465176
-0.046002403 -0.09750813 -0.1452563 0.15132697 -0.0155068515 -0.047486875 0.12901205 -0.06890438
0.05382943 0.22609599 0.03618628 0.24953017 -0.068882406 -0.02835642 -0.1391 0.07737165
-0.014363628 0.01027959 -0.08509831 -0.056357797 0.009670493 0.09127061 0.18515775 0.097228095
0.018551352 0.049734782 -0.18526104 -0.005081105 0.10034985 -0.18983614 -0.12527543 0.05434705
0.14370221 -0.06657454 -0.14862034 -0.1661506 -0.16589661 -0.06800491 0.051985078 -0.03343743
-0.09373149 0.055215623 -0.1520602 0.056307055 0.06438473 -0.057169635 -0.03878072 -0.05075796
0.00012661247 -0.1933201 -0.118814446 -0.02916759 -0.09062053 0.108456075 -0.02583502 -0.12964867
0.1419779 0.21205465 0.07876121 0.12905058 0.2552521 0.17103069 0.1202975 0.23219444
-0.080795705 -0.12373263 0.026155014 -0.08128951 -0.13944173 0.23913574 0.045108855 0.08591077
-0.11533399 0.11606058 0.23618771 0.17855595 0.122909315 0.026493995 -0.066792116 0.26364395
0.108833686 0.01280625 0.12684391 -0.05164571 0.20986095 0.14617479 0.07931627 -0.112021856
0.2470714 0.04910427 0.06949163 0.056263693 -0.022591986 0.23953235 -0.092499405 0.19671503
-0.0062761814 0.05565317 -0.13832586 -0.05228481 0.14491077 -0.0408098 0.20913792 0.06557691
0.0745072 0.11239534 -0.031023603 0.17266272 0.09669217 0.1234591 -0.033321805 0.11887606
-0.18871193 0.040196057 0.18288364 -0.12890224 -0.110245526 0.17154099 -0.0038502691 -0.029677
-0.02721767 0.1864689 -0.051379915 0.006386159 -0.011883642 0.26015806 -0.027213907 0.15022019
0.19652031 0.029840853 -0.110452645 -0.060777474 0.08269113 0.16022195 0.16707383 0.11477221
-0.015164093 -0.014372818 0.2135846 0.20130558 0.1637562 -0.08510523 -0.09295348 0.046286695
-0.028346555 0.018002193 0.1484306 0.09985738 0.14188774 0.12845144 0.21581309 0.11777195
-0.18221079 -0.117109336 0.15502183 0.10207759 0.07520901 0.009312865 -0.19291125 0.11232977
0.011466893 0.061061155 0.14368823 -0.13877757 0.07176229 -0.08545851 0.03387438 0.10805905
-0.1767689 -0.18514404 -0.020827912 -0.09012396 0.14609332 0.114636 0.019958984 -0.1817846
0.09105858 0.04984715 -0.10155313 -0.09462271 -0.04279822 0.11924961 -0.1106734 -0.087894745
0.102794565 -0.057948075 -0.032488327 -0.04123395 -0.023052214 -0.14873591 0.025289131 0.06687895
0.08334038 -0.14889926 -0.089393675 -0.14413612 0.009493208 0.09594386 0.15802386 0.04079216
-0.03200929 -0.033951737 -0.13805191 -0.051538374 -0.042357497 -0.06601431 0.10295679 -0.032045774
-0.15642509 0.11757139 -0.053586368 -0.046402566 -0.016525876 0.0013135115 -0.07718069 -0.013290366

model.6.bias f4 [16]
00000000: 631a dfbd 295d c43b 4a88 503b d8ab 313e
00000010: 2478 b9bd f3cd 0b3e 8bc1 41be 1aaa 2bbe
00000020: 3c0e f7bd 4333 f83c a8fc d4bc d918 ce3c
00000030: a7ea 0a3e af8e 5a3d fda4 f93c 71de 95bd
-0.10893705 0.005992551 0.0031819516 0.1735071 -0.09056118 0.13652782 -0.18921487 -0.16764107
-0.12063262 0.030297881 -0.025999382 0.025158333 0.13566075 0.05335873 0.03047418 -0.07317818

model.8.weight f4 [1, 16]
00000000: 3023 363e fec9 4abe b637 f33d d60a 99be
00000010: 02fd 09be 156c 09be 0b59 083e 1d60 efbd
00000020: 2215 503e 568c 983d 7133 423e e98c b4bd
00000030: 89aa 233e 7823 273e e8fc 9dbe 8f32 14be
0.1778686 -0.19803616 0.118758604 -0.2989108 -0.13475421 -0.13420136 0.13315217 -0.11688254
0.20320562 0.07448642 0.18964936 -0.08815939 0.15983023 0.16322124 -0.30857015 -0.14472412
