models/data/results_20241028_144842/best_stroke_model.pth (torch, 16248 bytes, 7 tensors)

model.0.weight f4 [64, 8]
0.06965948 -0.015484344 -0.34127584 0.18933418 0.16075166 -0.12975776 -0.26241523 0.15914015
-0.29851642 0.23846358 -0.03212375 -0.4549681 0.061341986 -0.07378744 -0.40190443 0.1938773
-0.25003406 0.1125792 -0.4277701 -0.019474326 0.11933238 -0.1497656 0.18821782 -0.19316012
-0.12913066 -0.12845127 0.059841685 -0.110432304 0.21804361 0.22034858 0.2685296 -0.1326565
-0.12213829 -0.0007700907 0.21649714 -0.20632467 -0.18688783 -0.057295438 -0.0017185987 0.09205331
-0.031536423 0.17308433 0.075635985 0.028878089 -0.1459781 0.28990063 0.12940572 0.10560014
0.37017658 -0.07707803 -0.39502123 -0.12982355 0.25067785 0.21830212 -0.13541178 -0.08026472
-0.058045294 -0.5387472 -0.22318548 -0.2341285 0.14386332 0.37092933 0.048213862 0.07709784
-0.004383324 0.31436276 -0.13543482 0.11634995 -0.2683169 -0.014548488 0.23114756 -0.26291975
-0.09709012 0.17598946 -0.22768097 0.34989268 -0.2442283 -0.19645782 0.106155 -0.09525266
0.30416772 -0.27289692 0.058236305 -0.00545799 -0.29751706 -0.2910252 -0.012628378 0.25151157
-0.28312278 -0.02758014 0.089612626 -0.106492355 0.24058911 -0.23008953 -0.06302332 -0.089594476
-0.04680319 -0.32047594 -0.12924887 0.212272 0.02436093 -0.112879336 0.095676735 -0.33148435
0.35456267 -0.32177013 0.3316076 0.22572574 -0.06534649 0.054824643 0.2370139 -0.0031196687
-0.12348599 0.26134673 -0.3615099 0.2589011 -0.18381841 0.092097074 0.13529101 -0.1886123
-0.21607585 -0.08725494 -0.2778317 -0.263746 0.10082633 -0.041312374 0.0029311017 -0.19730131
0.39613494 -0.3775773 0.30578882 -0.09574531 -0.2128462 -0.24646892 0.16036358 0.22279431
-0.26824307 0.2743721 -0.22551666 -0.4208198 -0.0012397001 0.23027009 -0.1364049 -0.08363027
-0.083141364 -0.19894943 0.072593205 -0.33218536 -0.2838185 0.13128515 -0.41133797 0.16502704
0.02259105 -0.061264664 0.0063491636 -0.39283603 0.06066304 0.17010008 0.07161684 0.043997765
0.2620342 0.180648 -0.12879397 0.19841202 0.15567924 0.27171227 0.030573945 -0.42640927
0.237686 0.19940656 -0.092665724 0.25569317 0.1804336 -0.078376606 0.16557404 -0.38945782
0.20935002 -0.040497582 0.19572587 -0.23605116 0.201184 -0.30193782 0.2906028 0.26934436
0.055909343 0.2151512 -0.061703373 0.23387083 0.112961255 0.0158146 0.106212206 0.0890025
0.3213238 -0.14505786 -0.3193104 -0.04940965 0.11440649 -0.21968365 -0.101927765 -0.30102015
0.30027756 -0.031343833 -0.022957666 -0.22983342 -0.24449779 0.23036972 -0.31677136 -0.19810699
-0.23960443 -0.05819345 0.2471225 -0.17909153 0.30571702 0.1900635 -0.4133107 -0.031855598
0.07468533 0.27641818 0.0060772216 0.15270957 0.2923156 0.28180072 -0.20027398 0.27673978
0.07436523 -0.13582328 -0.0025439982 0.20652188 -0.2112592 -0.2770351 0.35718358 0.28229368
-0.36901307 0.08676381 -0.31708398 -0.2160917 -0.3737826 0.07180535 0.05609853 0.2645196
0.0534402 0.053569216 -0.48168188 -0.009090479 0.14132698 0.00415137 -0.3259697 -0.24846835
-0.08750621 -0.48761922 -0.2940325 0.09586102 -0.047975034 -0.25576913 -0.2960246 -0.05560177
00000000: a1a9 8e3d 0cb2 7dbc b5bb aebe d2e0 413e
00000010: 159c 243e 38df 04be 4a5b 86be a3f5 223e
00000020: 25d7 98be cc2f 743e 3194 03bd 94f1 e8be
00000030: bc41 7b3d df1d 97bd 6bc6 cdbe c587 463e
00000040: 7704 80be ec8f e63d af04 dbbe 9f88 9fbc
00000050: 8964 f43d 275c 19be 2cbc 403e c4cb 45be
00000060: d43a 04be bb88 03be 8e1c 753d 552a e2bd
00000070: d346 5f3e 0fa3 613e b67c 893e 1bd7 07be
00000080: a423 fabd e9df 49ba 6db1 5d3e c646 53be
00000090: 865f 3fbe 9fae 6abd 9a42 e1ba 7286 bc3d
000000a0: 562c 01bd 053d 313e 0ae7 9a3d be91 ec3c
000000b0: 487b 15be db6d 943e ef82 043e e344 d83d
000000c0: c987 bd3e 16db 9dbd 3940 cabe 77f0 04be
000000d0: d958 803e 978a 5f3e 63a9 0abe d461 a4bd
000000e0: e7c0 6dbd 56eb 09bf bc8a 64be 62bf 6fbe
000000f0: e850 133e 73ea bd3e e67b 453d 79e5 9d3d
00000100: fda1 8fbb 28f4 a03e 6daf 0abe e248 ee3d
00000110: d560 89be c85c 6ebc f2b1 6c3e 6b9d 86be
00000120: 2fd7 c6bd 9536 343e 3325 69be 2225 b33e
00000130: fc16 7abe 3d2c 49be cb67 d93d d413 c3bd
00000140: dfbb 9b3e 25b9 8bbe 3189 6e3d f0d8 b2bb
00000150: 2854 98be 4101 95be 42e7 4ebc 20c6 803e
00000160: 78f5 90be bfef e1bc d386 b73d aa18 dabd
00000170: fe5c 763e 979c 6bbe 5f12 81bd 4f7d b7bd
00000180: b4b4 3fbd 6c15 a4be d159 04be d55d 593e
00000190: 9390 c73c 482d e7bd 2af2 c33d 51b8 a9be
000001a0: 3d89 b53e 0ebf a4be 79c8 a93e a624 673e
000001b0: 61d4 85bd ce8f 603d c6b3 723e 5b73 4cbb
000001c0: 39e6 fcbd 3dcf 853e d317 b9be af8e 843e
000001d0: e53a 3cbe 649d bc3d ba89 0a3e 9523 41be
000001e0: fd42 5dbe b8b2 b2bd f53f 8ebe b709 87be
000001f0: 097e ce3d 2a37 29bd ba17 403b 5b09 4abe
00000200: 33d2 ca3e d051 c1be 5a90 9c3e 1e16 c4bd
00000210: 5bf4 59be 5962 7cbe 5a36 243e 3124 643e
00000220: 2857 89be 807a 8c3e d7ed 66be b175 d7be
00000230: 6f7d a2ba eccb 6b3e baad 0bbe 5946 abbd
00000240: 0546 aabd 66b9 4bbe bfab 943d 3314 aabe
00000250: a950 91be 9d6f 063e e49a d2be d9fc 283e
00000260: de10 b93c a8f0 7abd a50c d03b ce21 c9be
00000270: cf79 783d b72e 2e3e daab 923d 0037 343d
00000280: 5929 863e cafb 383e 91e2 03be 852c 4b3e
00000290: 616a 1f3e df1d 8b3e 3676 fa3c 5152 dabe
000002a0: f563 733e 3c31 4c3e 87c7 bdbd 37ea 823e
000002b0: 96c3 383e ea83 a0bd 3e8c 293e 0467 c7be
000002c0: da5f 563e cbe0 25bd 5d6c 483e 65b7 71be
000002d0: 2e03 4e3e 9897 9abe e4c9 943e 81e7 893e
000002e0: 3201 653d 9950 5c3e adbc 7cbd d67b 6f3e
000002f0: 3b58 e73d 9f8d 813c c985 d93d f146 b63d
00000300: 8e84 a43e 0c8a 14be a77c a3be c661 4abd
00000310: f34d ea3d c0f4 60be 81bf d0bd 501f 9abe
00000320: fbbd 993e 6462 00bd b711 bcbc 7459 6bbe
00000330: a15d 7abe 0ae6 6b3e db2f a2be 8fdc 4abe
00000340: dd5a 75be 415c 6ebd ae0d 7d3e c563 37be
00000350: f186 9c3e 02a0 423e 769d d3be 047b 02bd
00000360: 9ff4 983d af86 8d3e 6e23 c73b e65f 1c3e
00000370: 64aa 953e 2f48 903e 9f14 4dbe d6b0 8d3e
00000380: cc4c 983d 4215 0bbe 35b9 26bb 797a 533e
00000390: 5554 58be 8bd7 8dbe c4e0 b63e cc88 903e
000003a0: 48ef bcbe 39b1 b13d d558 a2be 2547 5dbe
000003b0: 6f60 bfbe af0e 933d 92c7 653d 1d6f 873e
000003c0: 1ce4 5a3d 656b 5b3d 029f f6be 3cf0 14bc
000003d0: 05b8 103e 3708 883b 80e5 a6be 7d6e 7ebe
000003e0: 7536 b3bd 3aa9 f9be 6e8b 96be c852 c43d
000003f0: 7881 44bd 2cf4 82be 8990 97be aebe 63bd

model.0.bias f4 [64]
0.22404169 0.09725706 0.15687545 -0.18597247 -0.26761106 -0.24055094 -0.17171142 -0.21817873
-0.010043479 -0.32107154 0.09239732 0.12021624 -0.2612381 0.3208463 -0.060705706 0.0064648
0.34575936 0.2449726 0.030240055 0.42751735 -0.33499613 0.1424548 -0.14851715 -0.2396415
0.12086568 0.3750135 0.18707721 -0.048336927 0.04478038 -0.20662531 0.47577974 -0.2395033
-0.124390006 0.086865865 0.48412347 -0.06867583 -0.19667432 0.397147 0.3699412 0.12488834
-0.23949532 0.15636232 0.13401301 0.27539396 -0.18400843 0.019678812 -0.060054854 -0.080063544
0.35848328 -0.24860421 -0.06464338 0.3773215 0.24346407 -0.2667866 0.19059895 0.36073276
-0.2502538 0.3123321 0.43072394 0.36525297 0.037391353 -0.1506808 0.035691533 0.033067558
00000000: 2f6b 653e b62e c73d f5a3 203e 916f 3ebe
00000010: 5104 89be fc52 76be 1ed5 2fbe 3f6a 5fbe
00000020: 678d 24bc 7d63 a4be ce3a bd3d ef33 f63d
00000030: 00c1 85be f745 a43e 8ca6 78bd acd6 d33b
00000040: 5f07 b13e 19da 7a3e feb9 f73c 8ee3 da3e
00000050: 9d84 abbe acdf 113e e114 18be 9564 75be
00000060: 6d88 f73d c501 c03e 2b91 3f3e f1fc 45bd
00000070: a26b 373d 9695 53be 6799 f33e 5a40 75be
00000080: 30c0 febd bbe6 b13d 08df f73e eaa5 8cbd
00000090: fe64 49be da56 cb3e ef68 bd3e 75c5 ff3d
000000a0: 433e 75be 721d 203e b53a 093e 7000 8d3e
000000b0: b56c 3cbe 7635 a13c 14fc 75bd 5bf8 a3bd
000000c0: 1f8b b73e 1a92 7ebe c063 84bd 4930 c13e
000000d0: a54e 793e 4198 88be 5f2c 433e f7b1 b83e
000000e0: 4421 80be fee9 9f3e d987 dc3e 7002 bb3e
000000f0: ad27 193d 114c 1abe 4931 123d d971 073d

model.3.weight f4 [32, 64]
0.0039724642 -0.023972046 -0.08148086 -0.12703775 0.0917797 -0.032938965 -0.025667643 0.17152566
0.030965656 0.061509788 0.16853508 0.13810425 0.10336388 0.045357466 0.060106076 -0.020083195
0.037317872 -0.03711618 0.07272556 -0.053010285 0.077746965 0.016692623 -0.00783098 -0.1400177
-0.065238394 0.05696879 0.113976 -0.007959973 -0.06698182 0.0006360271 0.029488621 0.02431883
0.11886846 -0.09991726 0.091258384 0.1139935 0.26729485 0.047304284 0.120314054 0.058739528
0.003689557 0.08575585 0.07658896 0.12615006 0.06939459 -0.015970124 -0.08737661 0.038438953
0.12544394 0.057876006 0.0975891 0.063988514 0.034994945 0.16662693 0.14179473 0.052363276
0.011014513 -0.10614995 0.1069729 0.13940872 0.108496584 -0.07101769 -0.0323501 0.025190763
0.008194834 0.025450572 -0.015490599 -0.09104106 -0.11970841 -0.05892643 0.037277896 0.04407493
-0.030413624 0.12747525 -0.12770446 0.0106100915 0.15533765 -0.14090738 0.1041832 0.22264141
-0.121674895 0.11462284 0.03498846 -0.048797622 -0.012428102 0.072145544 -0.039441135 -0.05297649
-0.115589164 -0.03140377 -0.045440305 -0.12482915 -0.0001783462 -0.032255866 0.086991385 -0.0114468755
-0.06673604 0.1155696 0.03142859 -0.14515689 0.24488963 0.02014867 0.09292108 0.14069866
0.029619943 0.030554144 0.020860387 -0.009125456 -0.047056228 0.096209526 -0.03526988 -0.06879365
0.1638894 -0.115398854 0.02859338 -0.1033004 0.121709645 0.098060295 -0.09949759 0.085416175
-0.079092406 -0.02064869 0.10038424 0.05323436 0.13352633 -0.08104277 0.028566062 0.20585802
-0.09866095 0.044868045 -0.07853046 0.09220288 0.034857444 -0.092324436 0.08421072 -0.12984665
0.030372418 0.05115419 0.049265776 -0.10741533 -0.10525364 -0.01466524 0.049645912 -0.10525847
0.048897374 -0.16113739 0.020507693 0.05262002 -0.08750018 -0.14660685 0.015471996 -0.030602865
0.05316682 -0.13643152 -0.09232665 -0.14483993 -0.047100514 -0.0017015791 -0.04595555 0.027524518
-0.09368943 -0.035516262 0.06828416 0.012792619 -0.010872562 -0.07112912 0.044600677 -0.01033511
-0.08707104 -0.086902365 -0.057113837 0.055887006 -0.021157298 -0.15183629 0.025865862 -0.07202476
0.065481566 0.039901912 -0.0044733635 -0.032371305 -0.061818935 -0.035885204 -0.14863324 0.07375487
-0.10820347 -0.1480897 -0.031026663 0.06756024 0.00409402 -0.15637189 -0.087924264 -0.029342942
0.120937884 0.120201275 -0.05392497 -0.1300877 0.08906011 -0.029848248 0.12842754 0.17546952
-0.05237532 -0.009201105 -0.027557084 -0.0027209737 0.087468095 0.054589134 0.14698252 0.22514541
0.07952765 0.14829324 -0.021831105 0.05722086 -0.057764243 -0.0020128964 0.0470519 -0.15149187
0.07426687 0.12052485 0.16824442 -0.07210653 -0.1171144 0.029694747 0.22522871 0.022101257
-0.09354394 0.13599877 0.06404826 0.048838686 0.281575 -0.026057314 0.11747397 0.08257123
0.10006268 0.09537795 0.034003645 -0.019734768 0.112326875 0.023757065 -0.046568286 0.048937265
-0.029790092 0.1216811 -0.105189376 0.12829487 0.095243484 -0.02237481 0.0063998247 -0.013300784
-0.085112475 -0.0219779 -0.0005745151 0.058577254 0.12595162 0.048506938 0.07755054 0.051325765
00000000: 722b 823b 0661 c4bc 70df a6bd 2f16 02be
00000010: fff6 bb3d 02eb 06bd f344 d2bc 6ca4 2f3e
00000020: b0ab fd3c b0f1 7b3d 7694 2c3e 336b 0d3e
00000030: 71b0 d33d c0c8 393d ca31 763d 8385 a4bc
00000040: a0da 183d 2307 18bd 23f1 943d 5021 59bd
00000050: cd39 9f3d f8be 883c 834d 00bc cd60 0fbe
00000060: b59b 85bd 1b58 693d 406c e93d 8c6a 02bc
00000070: c42d 89bd 0ebb 263a 1f92 f13c 4838 c73c
00000080: 4f71 f33d 6ca1 ccbd ade5 ba3d 6d75 e93d
00000090: dfda 883e 23c2 413d 3767 f63d dc98 703d
000000a0: 7fcc 713b c3a0 af3d acda 9c3d 7b2d 013e
000000b0: c01e 8e3d c7d3 82bc 82f2 b2bd 2a72 1d3d
000000c0: 6074 003e 640f 6d3d cbdc c73d 690c 833d
000000d0: dc56 0f3d 40a0 2a3e a332 113e e07a 563d
000000e0: 3776 343c 2565 d9bd 9c14 db3d 29c1 0e3e
000000f0: 7533 de3d b971 91bd 8a81 04bd dc5c ce3c
00000100: a043 063c b87d d03c 48cc 7dbc bc73 babd
00000110: af29 f5bd d75c 71bd b5b0 183d ea87 343d
00000120: fe25 f9bc df88 023e f5c4 02be f3d5 2d3c
00000130: d510 1f3e 064a 10be 005e d53d 1cfc 633e
00000140: b030 f9bd 61bf ea3d 0f50 0f3d 04e0 47bd
00000150: 3d9f 4bbc 0bc1 933d 078d 21bd e0fd 58bd
00000160: 03ba ecbd 3da1 00bd 9d1f 3abd 6da6 ffbd
00000170: 7202 3bb9 ba1e 04bd 8a28 b23d ad8b 3bbc
00000180: e8ac 88bd c1af ec3d 44bb 003d 02a4 14be
00000190: 59c4 7a3e d30e a53c 684d be3d 4f13 103e
000001a0: 86a5 f23c af4c fa3c 67e3 aa3c f082 15bc
000001b0: 08be 40bd 8009 c53d 2677 10bd afe3 8cbd
000001c0: 9fd2 273e 3c56 ecbd aa3c ea3c 298f d3bd
000001d0: e842 f93d d6d3 c83d 64c5 cbbd adee ae3d
000001e0: 33fb a1bd 7127 a9bc 4196 cd3d 460c 5a3d
000001f0: 20bb 083e c0f9 a5bd 6003 ea3c 72cc 523e
00000200: c10e cabd 8ec7 373d 94d4 a0bd ddd4 bc3d
00000210: aec6 0e3d 9814 bdbd ac76 ac3d 85f6 04be
00000220: 94cf f83c 0e87 513d e9ca 493d 92fc dbbd
00000230: 388f d7bd 7a46 70bc 8359 4b3d c191 d7bd
00000240: 9d48 483d 3301 25be c0ff a73c 1788 573d
00000250: 4b33 b3bd 1b20 16be 417e 7d3c dcb2 fabc
00000260: 74c5 593d b4b4 0bbe c115 bdbd eb50 14be
00000270: 78ec 40bd 8507 dfba e33b 3cbd 197b e13c
00000280: 3ee0 bfbd 8079 11bd 91d8 8b3d 2298 513c
00000290: d522 32bc 25ac 91bd 33af 363d 9854 29bc
000002a0: 4d52 b2bd def9 b1bd 33f0 69bd c6e9 643d
000002b0: 1252 adbc f97a 1bbe a5e4 d33c b881 93bd
000002c0: 331b 863d 3070 233d 4b95 92bb c697 04bd
000002d0: da35 7dbd 5dfc 12bd 5033 18be cb0c 973d
000002e0: c899 ddbd d4a4 17be a12b febc 065d 8a3d
000002f0: 2127 863b f41f 20be a311 b4bd 9c60 f0bc
00000300: 48ae f73d 162c f63d 6ee0 5cbd b635 05be
00000310: 2665 b63d 5084 f4bc 8282 033e 48ae 333e
00000320: 8187 56bd 3bc0 16bc 65bf e1bc 5d52 32bb
00000330: 7922 b33d db98 5f3d 9682 163e 858c 663e
00000340: 64df a23d 2fda 173e 25d7 b2bc 6c60 6a3d
00000350: 339a 6cbd ccea 03bb 7eb9 403d af20 1bbe
00000360: 3b19 983d bcd5 f63d 4448 2c3e 97ac 93bd
00000370: add9 efbd 6642 f33c 5ba2 663e b20d b53c
00000380: f793 bfbd 4343 0b3e bc2b 833d 130b 483d
00000390: 992a 903e 2676 d5bc 3196 f03d 1b1b a93d
000003a0: aaed cc3d 8455 c33d 6847 0b3d cfaa a1bc
000003b0: a20b e63d 2d9e c23c 63be 3ebd 7172 483d
000003c0: 5a0a f4bc f133 f93d 876d d7bd bb5f 033e
000003d0: 040f c33d 614b b7bc 9fb5 d13b 88eb 59bc
000003e0: 734f aebd ff0a b4bc 0e9b 16ba b4ee 6f3d
000003f0: 76f9 003e 36af 463d d1d2 9e3d f73a 523d

model.3.bias f4 [32]
0.0797819 0.17145945 0.06681734 0.06586556 0.04001114 0.1363126 0.060055282 0.0017643211
0.0978251 -0.13057195 0.078931525 -0.16310906 0.0029258125 0.045416437 0.088794656 0.058199838
0.14719121 0.018889742 0.09933214 0.079971604 0.12647443 0.23800763 0.16099863 0.14616953
0.15885364 0.086681746 -0.054443054 0.12154982 0.011739085 0.11208845 0.02381589 0.063067436
00000000: b164 a33d 1193 2f3e 88d7 883d 86e4 863d
00000010: b9e2 233d 8895 0b3e 87fc 753d cb40 e73a
00000020: 8758 c83d a7b4 05be daa6 a13d 1006 27be
00000030: fdbe 3f3b 9606 3a3d f9d9 b53d f462 6e3d
00000040: 4bb9 163e a9be 9a3c a66e cb3d 27c8 a33d
00000050: 8382 013e 46b8 733e d3dc 243e 77ad 153e
00000060: 87aa 223e 3386 b13d aeff 5ebd 1def f83d
00000070: 4b55 403c a18e e53d 8b19 c33c 8029 813d

model.6.weight f4 [16, 32]
0.03508531 0.15684833 0.20401646 0.05340112 0.048495933 0.06833618 0.102805495 0.16274324
-0.107287355 -0.0874978 0.12275826 -0.027314086 0.089418024 0.16943523 0.007253814 0.20605102
-0.058432497 0.017656948 0.0060668914 0.1275857 -0.04413746 -0.017190583 0.16210465 0.17517325
0.0059942026 0.22897033 0.09921461 -0.015007598 0.20040907 0.15858333 0.08912276 0.012809347
0.22139242 -0.048070863 -0.053496927 0.23294166 0.18710837 0.048916977 -0.07109627 0.0158953
0.19475886 0.1644189 -0.10210822 -0.20811087 -0.011081897 -0.00039864995 0.06378009 -0.034840386
-0.010213547 0.06457771 0.18199666 0.050331578 -0.018741164 0.013357868 0.08048643 -0.11993045
-0.064816795 0.07362478 0.12215616 0.046913818 -0.0389217 0.068818 -0.05017198 -0.05811698
0.14444436 -0.0061342353 -0.04939504 0.018597422 0.103815764 -0.100860246 0.16256882 0.20427012
0.12779367 -0.02918349 0.04651173 0.10854505 0.01620893 0.057950396 0.13799511 -0.089109324
-0.0486146 0.10691251 -0.05499148 0.13235585 0.07104143 0.0021439937 0.11714639 -0.015828801
-0.10333468 0.076121986 0.034870815 0.15629925 0.080967374 -0.036103185 0.1681066 0.06268505
-0.021884773 0.011734169 0.037874598 0.004771796 -0.05957715 0.008651134 -0.102874935 -0.16444534
-0.17526178 0.050837126 0.067660004 0.20755833 -0.06838721 0.005710561 -0.11083799 -0.036162753
0.043930426 0.114098504 -0.07597907 -0.11013628 0.096340805 -0.053205173 -0.1484819 0.11361555
0.043536384 0.16055861 0.15448569 -0.040399063 -0.16097265 -0.11663549 -0.10686985 0.076301545
0.04886308 -0.008744151 0.077668905 0.05014879 -0.04640705 0.13369924 0.028020147 -0.19820075
0.06837907 0.10967138 0.13799241 0.0034635123 -0.11466825 -0.069750585 0.040070593 0.007657789
-0.051772024 0.0015034812 0.09224378 -0.075619385 0.021236185 -0.15633641 0.033404708 -0.09181815
0.08089086 -0.17340878 0.032348163 0.072362274 -0.0459226 -0.15233763 -0.043237455 0.0100876605
0.15384136 0.17043175 -0.01060841 0.018502686 0.24155112 -0.050222475 -0.05053845 0.07190686
-0.102803536 0.10901253 0.04936345 0.11303534 0.095714726 -0.0995952 0.11642732 0.03713067
0.07070757 -0.029814627 0.0064548836 0.23641357 0.13920139 0.20375696 -0.054437235 0.05719179
-0.09837967 0.1198001 -0.108914874 0.17482683 -0.10035998 0.00060825434 -0.051970154 0.114555314
0.13189684 0.28642917 -0.027102167 0.19888537 0.1913806 0.1180625 0.12744269 0.15235128
0.13537079 0.06024057 0.12449021 -0.1682365 0.15560645 -0.008605788 0.14263542 0.005214393
-0.004280726 -0.071205296 -0.050436296 0.1148114 -0.0291327 0.051373944 0.04080327 -0.064373344
0.09462948 0.26596648 0.051818047 0.20581609 0.15068996 -0.021338772 0.16712335 -0.038305745
0.116005704 0.20180836 -0.0754937 0.24796934 0.05615427 0.05280335 0.105108194 -0.090085894
0.20610379 -0.027885722 -0.11809105 -0.06186268 0.07703287 0.12876631 0.022479756 0.0629564
0.20548461 -0.1382868 0.068174794 0.0008652477 0.25041422 0.032127213 0.14612983 0.12542213
0.18123706 0.059799224 -0.13599457 0.06335505 0.08267764 0.093832195 0.03250213 -0.079322174
00000000: 9db5 0f3d d99c 203e b1e9 503e 22bb 5a3d
00000010: aca3 463d d7f3 8b3d b08b d23d 2aa6 263e
00000020: 79b9 dbbd 0c32 b3bd af68 fb3d cac1 dfbc
00000030: cc20 b73d 6e80 2d3e 67b1 ed3b 0aff 523e
00000040: ea56 6fbd 4ea5 903c c6cc c63b d3a5 023e
00000050: 7bc9 34bd 44d3 8cbc c3fe 253e 9e60 333e
00000060: 046b c43b 3377 6a3e 0831 cb3d 6ee2 75bc
00000070: 0938 4d3e ab63 223e fe85 b63d 4cde 513c
00000080: b2b4 623e f4e5 44bd 981f 5bbd 4288 6e3e
00000090: 5699 3f3e 2b5d 483d ec9a 91bd dc36 823c
000000a0: de6e 473e 6e5d 283e 1d1e d1bd 041b 55be
000000b0: d890 35bc e401 d1b9 239f 823d cbb4 0ebd
000000c0: b956 27bc 5241 843d 555d 3a3e 7c28 4e3d
000000d0: 1287 99bc f6da 5a3c 12d6 a43d 199e f5bd
000000e0: abbe 84bd 97c8 963d 022d fa3d b428 403d
000000f0: 5c6c 1fbd 74f0 8c3d 2281 4dbd 120c 6ebd
00000100: 39e9 133e b201 c9bb 7452 4abd 9f59 983c
00000110: 5c9d d43d d18f cebd 7178 263e 302c 513e
00000120: 58dc 023e 3712 efbc 1583 3e3d de4c de3d
00000130: 97c8 843c 655d 6d3d 974e 0d3e f37e b6bd
00000140: 1a20 47bd f2f4 da3d bf3e 61bd 4b88 073e
00000150: 2b7e 913d 3f82 0c3b 72ea ef3d 67ab 81bc
00000160: 22a1 d3bd d8e5 9b3d b3d4 0e3d e90c 203e
00000170: 39d2 a53d efe0 13bd 2324 2c3e 0561 803d
00000180: b247 b3bc ac40 403c 6522 1b3d ba5c 9c3b
00000190: 2b07 74bd 7cbd 0d3c 18b0 d2bd 5c64 28be
000001a0: d377 33be 973a 503d 5491 8a3d 2c8a 543e
000001b0: 980e 8cbd a81f bb3b 07ff e2bd 651f 14bd
000001c0: 64f0 333d 7aac e93d ea9a 9bbd 218f e1bd
000001d0: 544e c53d abed 59bd a40b 18be 45af e83d
000001e0: 3553 323d 7a69 243e 7f31 1e3e 7d79 25bd
000001f0: 04d6 24be 96de eebd 94de dabd fc43 9c3d
00000200: a724 483d a143 0fbc e010 9f3d d168 4d3d
00000210: 5215 3ebd 74e8 083e 828a e53c 23f5 4abe
00000220: 530a 8c3d 639b e03d e24d 0d3e 18fc 623b
00000230: 30d7 eabd 65d9 8ebd 1021 243d 31ee fa3b
00000240: e70e 54bd 7510 c53a 4fea bc3d 56de 9abd
00000250: 82f7 ad3c a716 20be 60d3 083d 270b bcbd
00000260: 1baa a53d 1292 31be 827f 043d ac32 943d
00000270: 5619 3cbd 65fe 1bbe c219 31bd b746 253c
00000280: 9788 1d3e a985 2e3e e6ce 2dbc f292 973c
00000290: 2d59 773e 15b6 4dbd 6801 4fbd e743 933d
000002a0: a98a d2bd f641 df3d 5431 4a3d 137f e73d
000002b0: 1506 c43d 91f8 cbbd 7271 ee3d 5416 183d
000002c0: 21cf 903d ce3d f4bc 7d83 d33b 6616 723e
000002d0: cf8a 0e3e aaa5 503e 94f9 5ebd f041 6a3d
000002e0: 487b c9bd c159 f53d c30e dfbd ce05 333e
000002f0: 8889 cdbd 4273 1f3a a8de 54bd fa9b ea3d
00000300: f70f 073e d8a6 923e 5d05 debc 9ba8 4b3e
00000310: 47f9 433e c1ca f13d 5680 023e f901 1c3e
00000320: a49e 0a3e d1be 763d b9f4 fe3d 3046 2cbe
00000330: 4c57 1f3e 4bff 0cbc 050f 123e 80dd aa3b
00000340: 5545 8cbb 15d4 91bd 4a96 4ebd 3d22 eb3d
00000350: b3a7 eebc 7c6d 523d 5421 273d 2cd6 83bd
00000360: 1acd c13d c22c 883e 293f 543d 74c1 523e
00000370: 784e 1a3e a6ce aebc 6222 2b3e 7ce6 1cbd
00000380: 6694 ed3d daa6 4e3e 719c 9abd adeb 7d3e
00000390: 0502 663d 5348 583d f742 d73d f47e b8bd
000003a0: df0c 533e 9970 e4bc b8d9 f1bd b963 7dbd
000003b0: 69c3 9d3d 51db 033e 7727 b83c 49ef 803d
000003c0: 8f6a 523e 0e9b 0dbe 3a9f 8b3d cad1 623a
000003d0: 4b36 803e d397 033d 0fa3 153e a96e 003e
000003e0: 3596 393e 08f0 743d 2942 0bbe 4bc0 813d
000003f0: e552 a93d 182b c03d f420 053d aa73 a2bd

model.6.bias f4 [16]
0.023353683 0.21711737 0.09926675 -0.00409709 -0.20333187 0.17812273 0.0562139 0.045899015
-0.18093736 0.16481292 0.24986479 0.072757244 0.18333893 -0.05731518 0.1171832 0.15788952
00000000: 3950 bf3c 0454 5e3e 5e4c cb3d e240 86bb
00000010: 3b36 50be ce65 363e 8c40 663d 9b00 3c3d
00000020: a547 39be b8c4 283e 8edc 7f3e c001 953d
00000030: 33bd 3b3e 52c3 6abd bffd ef3d caad 213e

model.8.weight f4 [1, 16]
-0.11912961 -0.10830173 -0.21598113 0.033451885 0.14482504 -0.10656558 -0.24870959 -0.22916146
0.19438733 -0.048228346 -0.19254963 0.1376104 -0.23144381 -0.0822328 -0.19006063 -0.05457284
00000000: 3afa f3bd 4ccd ddbd 282a 5dbe d804 093d
00000010: 044d 143e 0e3f dabd baad 7ebe 4da9 6abe
00000020: 790d 473e 168b 45bd bb2b 45be bee9 0c3e
00000030: 9bff 6cbe ac69 a8bd 419f 42be c587 5fbd
